Model: "mobilenet_1.00_224"
_________________________________________________________________
Layer (type)                 Output Shape              Param #   
=================================================================
input_1 (InputLayer)         [(None, 224, 224, 3)]     0         
_________________________________________________________________
conv1_pad (ZeroPadding2D)    (None, 225, 225, 3)       0         
_________________________________________________________________
conv1_obf (Conv2D)           (None, 112, 112, 38)      1026      
_________________________________________________________________
ts_conv1 (TeeShadow)         (None, 112, 112, 32)      0         
_________________________________________________________________
conv_dw_1 (DepthwiseConv2D)  (None, 112, 112, 32)      288       
_________________________________________________________________
ts_dwconv1 (TeeShadow)       (None, 112, 112, 32)      0         
_________________________________________________________________
conv_pw_1 (Conv2D)           (None, 112, 112, 76)      2432      
_________________________________________________________________
ts_pwconv1 (TeeShadow)       (None, 112, 112, 64)      0         
_________________________________________________________________
conv_pad_2 (ZeroPadding2D)   (None, 113, 113, 64)      0         
_________________________________________________________________
conv_dw_2 (DepthwiseConv2D)  (None, 56, 56, 64)        576       
_________________________________________________________________
ts_dwconv2 (TeeShadow)       (None, 56, 56, 64)        0         
_________________________________________________________________
conv_pw_2 (Conv2D)           (None, 56, 56, 153)       9792      
_________________________________________________________________
ts_pwconv2 (TeeShadow)       (None, 56, 56, 128)       0         
_________________________________________________________________
conv_dw_3 (DepthwiseConv2D)  (None, 56, 56, 128)       1152      
_________________________________________________________________
ts_dwconv3 (TeeShadow)       (None, 56, 56, 128)       0         
_________________________________________________________________
conv_pw_3 (Conv2D)           (None, 56, 56, 153)       19584     
_________________________________________________________________
ts_pwconv3 (TeeShadow)       (None, 56, 56, 128)       0         
_________________________________________________________________
conv_pad_4 (ZeroPadding2D)   (None, 57, 57, 128)       0         
_________________________________________________________________
conv_dw_4 (DepthwiseConv2D)  (None, 28, 28, 128)       1152      
_________________________________________________________________
ts_dwconv4 (TeeShadow)       (None, 28, 28, 128)       0         
_________________________________________________________________
conv_pw_4 (Conv2D)           (None, 28, 28, 307)       39296     
_________________________________________________________________
ts_pwconv4 (TeeShadow)       (None, 28, 28, 256)       0         
_________________________________________________________________
conv_dw_5 (DepthwiseConv2D)  (None, 28, 28, 256)       2304      
_________________________________________________________________
ts_dwconv5 (TeeShadow)       (None, 28, 28, 256)       0         
_________________________________________________________________
conv_pw_5 (Conv2D)           (None, 28, 28, 307)       78592     
_________________________________________________________________
ts_pwconv5 (TeeShadow)       (None, 28, 28, 256)       0         
_________________________________________________________________
conv_pad_6 (ZeroPadding2D)   (None, 29, 29, 256)       0         
_________________________________________________________________
conv_dw_6 (DepthwiseConv2D)  (None, 14, 14, 256)       2304      
_________________________________________________________________
ts_dwconv6 (TeeShadow)       (None, 14, 14, 256)       0         
_________________________________________________________________
conv_pw_6 (Conv2D)           (None, 14, 14, 614)       157184    
_________________________________________________________________
ts_pwconv6 (TeeShadow)       (None, 14, 14, 512)       0         
_________________________________________________________________
conv_dw_7 (DepthwiseConv2D)  (None, 14, 14, 512)       4608      
_________________________________________________________________
ts_dwconv7 (TeeShadow)       (None, 14, 14, 512)       0         
_________________________________________________________________
conv_pw_7 (Conv2D)           (None, 14, 14, 614)       314368    
_________________________________________________________________
ts_pwconv7 (TeeShadow)       (None, 14, 14, 512)       0         
_________________________________________________________________
conv_dw_8 (DepthwiseConv2D)  (None, 14, 14, 512)       4608      
_________________________________________________________________
ts_dwconv8 (TeeShadow)       (None, 14, 14, 512)       0         
_________________________________________________________________
conv_pw_8 (Conv2D)           (None, 14, 14, 614)       314368    
_________________________________________________________________
ts_pwconv8 (TeeShadow)       (None, 14, 14, 512)       0         
_________________________________________________________________
conv_dw_9 (DepthwiseConv2D)  (None, 14, 14, 512)       4608      
_________________________________________________________________
ts_dwconv9 (TeeShadow)       (None, 14, 14, 512)       0         
_________________________________________________________________
conv_pw_9 (Conv2D)           (None, 14, 14, 614)       314368    
_________________________________________________________________
ts_pwconv9 (TeeShadow)       (None, 14, 14, 512)       0         
_________________________________________________________________
conv_dw_10 (DepthwiseConv2D) (None, 14, 14, 512)       4608      
_________________________________________________________________
ts_dwconv10 (TeeShadow)      (None, 14, 14, 512)       0         
_________________________________________________________________
conv_pw_10 (Conv2D)          (None, 14, 14, 614)       314368    
_________________________________________________________________
ts_pwconv10 (TeeShadow)      (None, 14, 14, 512)       0         
_________________________________________________________________
conv_dw_11 (DepthwiseConv2D) (None, 14, 14, 512)       4608      
_________________________________________________________________
ts_dwconv11 (TeeShadow)      (None, 14, 14, 512)       0         
_________________________________________________________________
conv_pw_11 (Conv2D)          (None, 14, 14, 614)       314368    
_________________________________________________________________
ts_pwconv11 (TeeShadow)      (None, 14, 14, 512)       0         
_________________________________________________________________
conv_pad_12 (ZeroPadding2D)  (None, 15, 15, 512)       0         
_________________________________________________________________
conv_dw_12 (DepthwiseConv2D) (None, 7, 7, 512)         4608      
_________________________________________________________________
ts_dwconv12 (TeeShadow)      (None, 7, 7, 512)         0         
_________________________________________________________________
conv_pw_12 (Conv2D)          (None, 7, 7, 1228)        628736    
_________________________________________________________________
ts_pwconv12 (TeeShadow)      (None, 7, 7, 1024)        0         
_________________________________________________________________
conv_dw_13 (DepthwiseConv2D) (None, 7, 7, 1024)        9216      
_________________________________________________________________
ts_dwconv13 (TeeShadow)      (None, 7, 7, 1024)        0         
_________________________________________________________________
conv_pw_13 (Conv2D)          (None, 7, 7, 1228)        1257472   
_________________________________________________________________
ts_pwconv13 (TeeShadow)      (None, 1, 1, 1024)        0         
_________________________________________________________________
obf_conv_preds (Conv2D)      (None, 1, 1, 1200)        1228800   
_________________________________________________________________
ts_results (TeeShadow)       (None, 1000)              0         
=================================================================
Total params: 5,039,394
Trainable params: 5,039,394
Non-trainable params: 0
_________________________________________________________________
