Model: "mobilenet_1.00_224"
_________________________________________________________________
Layer (type)                 Output Shape              Param #   
=================================================================
input_1 (InputLayer)         [(None, 224, 224, 3)]     0         
_________________________________________________________________
conv1_pad (ZeroPadding2D)    (None, 225, 225, 3)       0         
_________________________________________________________________
conv1_obf (Conv2D)           (None, 112, 112, 38)      1026      
_________________________________________________________________
tee_linear_transform (Linear (None, 112, 112, 32)      96        
_________________________________________________________________
tee_conv1_bn (BatchNormaliza (None, 112, 112, 32)      128       
_________________________________________________________________
tee_conv1_relu (ReLU)        (None, 112, 112, 32)      0         
_________________________________________________________________
tee_dwconv_shuffle_1 (Shuffl (None, 112, 112, 32)      64        
_________________________________________________________________
conv_dw_1 (DepthwiseConv2D)  (None, 112, 112, 32)      288       
_________________________________________________________________
tee_dwconv_restore_1 (Shuffl (None, 112, 112, 32)      64        
_________________________________________________________________
tee_conv_dw_1_bn (BatchNorma (None, 112, 112, 32)      128       
_________________________________________________________________
tee_conv_dw_1_relu (ReLU)    (None, 112, 112, 32)      0         
_________________________________________________________________
conv_pw_1 (Conv2D)           (None, 112, 112, 76)      2432      
_________________________________________________________________
tee_pw_lineartrans_1 (Linear (None, 112, 112, 64)      192       
_________________________________________________________________
tee_conv_pw_1_bn (BatchNorma (None, 112, 112, 64)      256       
_________________________________________________________________
tee_conv_pw_1_relu (ReLU)    (None, 112, 112, 64)      0         
_________________________________________________________________
tee_dwconv_shuffle_2 (Shuffl (None, 112, 112, 64)      128       
_________________________________________________________________
conv_pad_2 (ZeroPadding2D)   (None, 113, 113, 64)      0         
_________________________________________________________________
conv_dw_2 (DepthwiseConv2D)  (None, 56, 56, 64)        576       
_________________________________________________________________
tee_dwconv_restore_2 (Shuffl (None, 56, 56, 64)        128       
_________________________________________________________________
tee_conv_dw_2_bn (BatchNorma (None, 56, 56, 64)        256       
_________________________________________________________________
tee_conv_dw_2_relu (ReLU)    (None, 56, 56, 64)        0         
_________________________________________________________________
conv_pw_2 (Conv2D)           (None, 56, 56, 153)       9792      
_________________________________________________________________
tee_pw_lineartrans_2 (Linear (None, 56, 56, 128)       384       
_________________________________________________________________
tee_conv_pw_2_bn (BatchNorma (None, 56, 56, 128)       512       
_________________________________________________________________
tee_conv_pw_2_relu (ReLU)    (None, 56, 56, 128)       0         
_________________________________________________________________
tee_dwconv_shuffle_3 (Shuffl (None, 56, 56, 128)       256       
_________________________________________________________________
conv_dw_3 (DepthwiseConv2D)  (None, 56, 56, 128)       1152      
_________________________________________________________________
tee_dwconv_restore_3 (Shuffl (None, 56, 56, 128)       256       
_________________________________________________________________
tee_conv_dw_3_bn (BatchNorma (None, 56, 56, 128)       512       
_________________________________________________________________
tee_conv_dw_3_relu (ReLU)    (None, 56, 56, 128)       0         
_________________________________________________________________
conv_pw_3 (Conv2D)           (None, 56, 56, 153)       19584     
_________________________________________________________________
tee_pw_lineartrans_3 (Linear (None, 56, 56, 128)       384       
_________________________________________________________________
tee_conv_pw_3_bn (BatchNorma (None, 56, 56, 128)       512       
_________________________________________________________________
tee_conv_pw_3_relu (ReLU)    (None, 56, 56, 128)       0         
_________________________________________________________________
tee_dwconv_shuffle_4 (Shuffl (None, 56, 56, 128)       256       
_________________________________________________________________
conv_pad_4 (ZeroPadding2D)   (None, 57, 57, 128)       0         
_________________________________________________________________
conv_dw_4 (DepthwiseConv2D)  (None, 28, 28, 128)       1152      
_________________________________________________________________
tee_dwconv_restore_4 (Shuffl (None, 28, 28, 128)       256       
_________________________________________________________________
tee_conv_dw_4_bn (BatchNorma (None, 28, 28, 128)       512       
_________________________________________________________________
tee_conv_dw_4_relu (ReLU)    (None, 28, 28, 128)       0         
_________________________________________________________________
conv_pw_4 (Conv2D)           (None, 28, 28, 307)       39296     
_________________________________________________________________
tee_pw_lineartrans_4 (Linear (None, 28, 28, 256)       768       
_________________________________________________________________
tee_conv_pw_4_bn (BatchNorma (None, 28, 28, 256)       1024      
_________________________________________________________________
tee_conv_pw_4_relu (ReLU)    (None, 28, 28, 256)       0         
_________________________________________________________________
tee_dwconv_shuffle_5 (Shuffl (None, 28, 28, 256)       512       
_________________________________________________________________
conv_dw_5 (DepthwiseConv2D)  (None, 28, 28, 256)       2304      
_________________________________________________________________
tee_dwconv_restore_5 (Shuffl (None, 28, 28, 256)       512       
_________________________________________________________________
tee_conv_dw_5_bn (BatchNorma (None, 28, 28, 256)       1024      
_________________________________________________________________
tee_conv_dw_5_relu (ReLU)    (None, 28, 28, 256)       0         
_________________________________________________________________
conv_pw_5 (Conv2D)           (None, 28, 28, 307)       78592     
_________________________________________________________________
tee_pw_lineartrans_5 (Linear (None, 28, 28, 256)       768       
_________________________________________________________________
tee_conv_pw_5_bn (BatchNorma (None, 28, 28, 256)       1024      
_________________________________________________________________
tee_conv_pw_5_relu (ReLU)    (None, 28, 28, 256)       0         
_________________________________________________________________
tee_dwconv_shuffle_6 (Shuffl (None, 28, 28, 256)       512       
_________________________________________________________________
conv_pad_6 (ZeroPadding2D)   (None, 29, 29, 256)       0         
_________________________________________________________________
conv_dw_6 (DepthwiseConv2D)  (None, 14, 14, 256)       2304      
_________________________________________________________________
tee_dwconv_restore_6 (Shuffl (None, 14, 14, 256)       512       
_________________________________________________________________
tee_conv_dw_6_bn (BatchNorma (None, 14, 14, 256)       1024      
_________________________________________________________________
tee_conv_dw_6_relu (ReLU)    (None, 14, 14, 256)       0         
_________________________________________________________________
conv_pw_6 (Conv2D)           (None, 14, 14, 614)       157184    
_________________________________________________________________
tee_pw_lineartrans_6 (Linear (None, 14, 14, 512)       1536      
_________________________________________________________________
tee_conv_pw_6_bn (BatchNorma (None, 14, 14, 512)       2048      
_________________________________________________________________
tee_conv_pw_6_relu (ReLU)    (None, 14, 14, 512)       0         
_________________________________________________________________
tee_dwconv_shuffle_7 (Shuffl (None, 14, 14, 512)       1024      
_________________________________________________________________
conv_dw_7 (DepthwiseConv2D)  (None, 14, 14, 512)       4608      
_________________________________________________________________
tee_dwconv_restore_7 (Shuffl (None, 14, 14, 512)       1024      
_________________________________________________________________
tee_conv_dw_7_bn (BatchNorma (None, 14, 14, 512)       2048      
_________________________________________________________________
tee_conv_dw_7_relu (ReLU)    (None, 14, 14, 512)       0         
_________________________________________________________________
conv_pw_7 (Conv2D)           (None, 14, 14, 614)       314368    
_________________________________________________________________
tee_pw_lineartrans_7 (Linear (None, 14, 14, 512)       1536      
_________________________________________________________________
tee_conv_pw_7_bn (BatchNorma (None, 14, 14, 512)       2048      
_________________________________________________________________
tee_conv_pw_7_relu (ReLU)    (None, 14, 14, 512)       0         
_________________________________________________________________
tee_dwconv_shuffle_8 (Shuffl (None, 14, 14, 512)       1024      
_________________________________________________________________
conv_dw_8 (DepthwiseConv2D)  (None, 14, 14, 512)       4608      
_________________________________________________________________
tee_dwconv_restore_8 (Shuffl (None, 14, 14, 512)       1024      
_________________________________________________________________
tee_conv_dw_8_bn (BatchNorma (None, 14, 14, 512)       2048      
_________________________________________________________________
tee_conv_dw_8_relu (ReLU)    (None, 14, 14, 512)       0         
_________________________________________________________________
conv_pw_8 (Conv2D)           (None, 14, 14, 614)       314368    
_________________________________________________________________
tee_pw_lineartrans_8 (Linear (None, 14, 14, 512)       1536      
_________________________________________________________________
tee_conv_pw_8_bn (BatchNorma (None, 14, 14, 512)       2048      
_________________________________________________________________
tee_conv_pw_8_relu (ReLU)    (None, 14, 14, 512)       0         
_________________________________________________________________
tee_dwconv_shuffle_9 (Shuffl (None, 14, 14, 512)       1024      
_________________________________________________________________
conv_dw_9 (DepthwiseConv2D)  (None, 14, 14, 512)       4608      
_________________________________________________________________
tee_dwconv_restore_9 (Shuffl (None, 14, 14, 512)       1024      
_________________________________________________________________
tee_conv_dw_9_bn (BatchNorma (None, 14, 14, 512)       2048      
_________________________________________________________________
tee_conv_dw_9_relu (ReLU)    (None, 14, 14, 512)       0         
_________________________________________________________________
conv_pw_9 (Conv2D)           (None, 14, 14, 614)       314368    
_________________________________________________________________
tee_pw_lineartrans_9 (Linear (None, 14, 14, 512)       1536      
_________________________________________________________________
tee_conv_pw_9_bn (BatchNorma (None, 14, 14, 512)       2048      
_________________________________________________________________
tee_conv_pw_9_relu (ReLU)    (None, 14, 14, 512)       0         
_________________________________________________________________
tee_dwconv_shuffle_10 (Shuff (None, 14, 14, 512)       1024      
_________________________________________________________________
conv_dw_10 (DepthwiseConv2D) (None, 14, 14, 512)       4608      
_________________________________________________________________
tee_dwconv_restore_10 (Shuff (None, 14, 14, 512)       1024      
_________________________________________________________________
tee_conv_dw_10_bn (BatchNorm (None, 14, 14, 512)       2048      
_________________________________________________________________
tee_conv_dw_10_relu (ReLU)   (None, 14, 14, 512)       0         
_________________________________________________________________
conv_pw_10 (Conv2D)          (None, 14, 14, 614)       314368    
_________________________________________________________________
tee_pw_lineartrans_10 (Linea (None, 14, 14, 512)       1536      
_________________________________________________________________
tee_conv_pw_10_bn (BatchNorm (None, 14, 14, 512)       2048      
_________________________________________________________________
tee_conv_pw_10_relu (ReLU)   (None, 14, 14, 512)       0         
_________________________________________________________________
tee_dwconv_shuffle_11 (Shuff (None, 14, 14, 512)       1024      
_________________________________________________________________
conv_dw_11 (DepthwiseConv2D) (None, 14, 14, 512)       4608      
_________________________________________________________________
tee_dwconv_restore_11 (Shuff (None, 14, 14, 512)       1024      
_________________________________________________________________
tee_conv_dw_11_bn (BatchNorm (None, 14, 14, 512)       2048      
_________________________________________________________________
tee_conv_dw_11_relu (ReLU)   (None, 14, 14, 512)       0         
_________________________________________________________________
conv_pw_11 (Conv2D)          (None, 14, 14, 614)       314368    
_________________________________________________________________
tee_pw_lineartrans_11 (Linea (None, 14, 14, 512)       1536      
_________________________________________________________________
tee_conv_pw_11_bn (BatchNorm (None, 14, 14, 512)       2048      
_________________________________________________________________
tee_conv_pw_11_relu (ReLU)   (None, 14, 14, 512)       0         
_________________________________________________________________
tee_dwconv_shuffle_12 (Shuff (None, 14, 14, 512)       1024      
_________________________________________________________________
conv_pad_12 (ZeroPadding2D)  (None, 15, 15, 512)       0         
_________________________________________________________________
conv_dw_12 (DepthwiseConv2D) (None, 7, 7, 512)         4608      
_________________________________________________________________
tee_dwconv_restore_12 (Shuff (None, 7, 7, 512)         1024      
_________________________________________________________________
tee_conv_dw_12_bn (BatchNorm (None, 7, 7, 512)         2048      
_________________________________________________________________
tee_conv_dw_12_relu (ReLU)   (None, 7, 7, 512)         0         
_________________________________________________________________
conv_pw_12 (Conv2D)          (None, 7, 7, 1228)        628736    
_________________________________________________________________
tee_pw_lineartrans_12 (Linea (None, 7, 7, 1024)        3072      
_________________________________________________________________
tee_conv_pw_12_bn (BatchNorm (None, 7, 7, 1024)        4096      
_________________________________________________________________
tee_conv_pw_12_relu (ReLU)   (None, 7, 7, 1024)        0         
_________________________________________________________________
tee_dwconv_shuffle_13 (Shuff (None, 7, 7, 1024)        2048      
_________________________________________________________________
conv_dw_13 (DepthwiseConv2D) (None, 7, 7, 1024)        9216      
_________________________________________________________________
tee_dwconv_restore_13 (Shuff (None, 7, 7, 1024)        2048      
_________________________________________________________________
tee_conv_dw_13_bn (BatchNorm (None, 7, 7, 1024)        4096      
_________________________________________________________________
tee_conv_dw_13_relu (ReLU)   (None, 7, 7, 1024)        0         
_________________________________________________________________
conv_pw_13 (Conv2D)          (None, 7, 7, 1228)        1257472   
_________________________________________________________________
tee_pw_lineartrans_13 (Linea (None, 7, 7, 1024)        3072      
_________________________________________________________________
tee_conv_pw_13_bn (BatchNorm (None, 7, 7, 1024)        4096      
_________________________________________________________________
tee_conv_pw_13_relu (ReLU)   (None, 7, 7, 1024)        0         
_________________________________________________________________
global_average_pooling2d (Gl (None, 1024)              0         
_________________________________________________________________
tee_reshape_1 (Reshape)      (None, 1, 1, 1024)        0         
_________________________________________________________________
tee_dropout (Dropout)        (None, 1, 1, 1024)        0         
_________________________________________________________________
obf_conv_preds (Conv2D)      (None, 1, 1, 1200)        1228800   
_________________________________________________________________
tee_lineartrans_pred (Linear (None, 1, 1, 1000)        3000      
_________________________________________________________________
tee_pred_add_bias (AddMask)  (None, 1, 1, 1000)        1000      
_________________________________________________________________
tee_reshape_2 (Reshape)      (None, 1000)              0         
_________________________________________________________________
tee_predictions (Activation) (None, 1000)              0         
=================================================================
Total params: 5,124,962
Trainable params: 5,103,074
Non-trainable params: 21,888
_________________________________________________________________
  0 input_1
  1 conv1_pad
  2 conv1_obf
  3 tee_linear_transform
  4 tee_conv1_bn
  5 tee_conv1_relu
  6 tee_dwconv_shuffle_1
  7 conv_dw_1
  8 tee_dwconv_restore_1
  9 tee_conv_dw_1_bn
…
