Model: "inception_v3_obf"
__________________________________________________________________________________________________
Layer (type)                    Output Shape         Param #     Connected to                     
==================================================================================================
input_1 (InputLayer)            [(None, 299, 299, 3) 0                                            
__________________________________________________________________________________________________
conv2d_obf_0 (Conv2D)           (None, 149, 149, 38) 1026        input_1[0][0]                    
__________________________________________________________________________________________________
lt_0 (LinearTransform)          (None, 149, 149, 32) 96          conv2d_obf_0[0][0]               
__________________________________________________________________________________________________
bn_0 (BatchNormalization)       (None, 149, 149, 32) 96          lt_0[0][0]                       
__________________________________________________________________________________________________
activation (Activation)         (None, 149, 149, 32) 0           bn_0[0][0]                       
__________________________________________________________________________________________________
push_mask_1 (AddMask)           (None, 149, 149, 32) 710432      activation[0][0]                 
__________________________________________________________________________________________________
conv2d_obf_1 (Conv2D)           (None, 147, 147, 38) 10944       push_mask_1[0][0]                
__________________________________________________________________________________________________
lt_1 (LinearTransform)          (None, 147, 147, 32) 96          conv2d_obf_1[0][0]               
__________________________________________________________________________________________________
pop_mask_1 (AddMask)            (None, 147, 147, 32) 691488      lt_1[0][0]                       
__________________________________________________________________________________________________
bn_1 (BatchNormalization)       (None, 147, 147, 32) 96          pop_mask_1[0][0]                 
__________________________________________________________________________________________________
activation_1 (Activation)       (None, 147, 147, 32) 0           bn_1[0][0]                       
__________________________________________________________________________________________________
push_mask_2 (AddMask)           (None, 147, 147, 32) 691488      activation_1[0][0]               
__________________________________________________________________________________________________
conv2d_obf_2 (Conv2D)           (None, 147, 147, 76) 21888       push_mask_2[0][0]                
__________________________________________________________________________________________________
lt_2 (LinearTransform)          (None, 147, 147, 64) 192         conv2d_obf_2[0][0]               
__________________________________________________________________________________________________
pop_mask_2 (AddMask)            (None, 147, 147, 64) 1382976     lt_2[0][0]                       
__________________________________________________________________________________________________
bn_2 (BatchNormalization)       (None, 147, 147, 64) 192         pop_mask_2[0][0]                 
__________________________________________________________________________________________________
activation_2 (Activation)       (None, 147, 147, 64) 0           bn_2[0][0]                       
__________________________________________________________________________________________________
max_pooling2d (MaxPooling2D)    (None, 73, 73, 64)   0           activation_2[0][0]               
__________________________________________________________________________________________________
push_mask_3 (AddMask)           (None, 73, 73, 64)   341056      max_pooling2d[0][0]              
__________________________________________________________________________________________________
conv2d_obf_3 (Conv2D)           (None, 73, 73, 96)   6144        push_mask_3[0][0]                
__________________________________________________________________________________________________
lt_3 (LinearTransform)          (None, 73, 73, 80)   240         conv2d_obf_3[0][0]               
__________________________________________________________________________________________________
pop_mask_3 (AddMask)            (None, 73, 73, 80)   426320      lt_3[0][0]                       
__________________________________________________________________________________________________
bn_3 (BatchNormalization)       (None, 73, 73, 80)   240         pop_mask_3[0][0]                 
__________________________________________________________________________________________________
activation_3 (Activation)       (None, 73, 73, 80)   0           bn_3[0][0]                       
__________________________________________________________________________________________________
push_mask_4 (AddMask)           (None, 73, 73, 80)   426320      activation_3[0][0]               
__________________________________________________________________________________________________
conv2d_obf_4 (Conv2D)           (None, 71, 71, 230)  165600      push_mask_4[0][0]                
__________________________________________________________________________________________________
lt_4 (LinearTransform)          (None, 71, 71, 192)  576         conv2d_obf_4[0][0]               
__________________________________________________________________________________________________
pop_mask_4 (AddMask)            (None, 71, 71, 192)  967872      lt_4[0][0]                       
__________________________________________________________________________________________________
bn_4 (BatchNormalization)       (None, 71, 71, 192)  576         pop_mask_4[0][0]                 
__________________________________________________________________________________________________
activation_4 (Activation)       (None, 71, 71, 192)  0           bn_4[0][0]                       
__________________________________________________________________________________________________
max_pooling2d_1 (MaxPooling2D)  (None, 35, 35, 192)  0           activation_4[0][0]               
__________________________________________________________________________________________________
push_mask_8 (AddMask)           (None, 35, 35, 192)  235200      max_pooling2d_1[0][0]            
__________________________________________________________________________________________________
conv2d_obf_8 (Conv2D)           (None, 35, 35, 76)   14592       push_mask_8[0][0]                
__________________________________________________________________________________________________
lt_8 (LinearTransform)          (None, 35, 35, 64)   192         conv2d_obf_8[0][0]               
__________________________________________________________________________________________________
pop_mask_8 (AddMask)            (None, 35, 35, 64)   78400       lt_8[0][0]                       
__________________________________________________________________________________________________
bn_8 (BatchNormalization)       (None, 35, 35, 64)   192         pop_mask_8[0][0]                 
__________________________________________________________________________________________________
activation_8 (Activation)       (None, 35, 35, 64)   0           bn_8[0][0]                       
__________________________________________________________________________________________________
push_mask_6 (AddMask)           (None, 35, 35, 192)  235200      max_pooling2d_1[0][0]            
__________________________________________________________________________________________________
push_mask_9 (AddMask)           (None, 35, 35, 64)   78400       activation_8[0][0]               
__________________________________________________________________________________________________
conv2d_obf_6 (Conv2D)           (None, 35, 35, 57)   10944       push_mask_6[0][0]                
__________________________________________________________________________________________________
conv2d_obf_9 (Conv2D)           (None, 35, 35, 115)  66240       push_mask_9[0][0]                
__________________________________________________________________________________________________
lt_6 (LinearTransform)          (None, 35, 35, 48)   144         conv2d_obf_6[0][0]               
__________________________________________________________________________________________________
lt_9 (LinearTransform)          (None, 35, 35, 96)   288         conv2d_obf_9[0][0]               
__________________________________________________________________________________________________
pop_mask_6 (AddMask)            (None, 35, 35, 48)   58800       lt_6[0][0]                       
__________________________________________________________________________________________________
pop_mask_9 (AddMask)            (None, 35, 35, 96)   117600      lt_9[0][0]                       
__________________________________________________________________________________________________
bn_6 (BatchNormalization)       (None, 35, 35, 48)   144         pop_mask_6[0][0]                 
__________________________________________________________________________________________________
bn_9 (BatchNormalization)       (None, 35, 35, 96)   288         pop_mask_9[0][0]                 
__________________________________________________________________________________________________
activation_6 (Activation)       (None, 35, 35, 48)   0           bn_6[0][0]                       
__________________________________________________________________________________________________
activation_9 (Activation)       (None, 35, 35, 96)   0           bn_9[0][0]                       
__________________________________________________________________________________________________
average_pooling2d (AveragePooli (None, 35, 35, 192)  0           max_pooling2d_1[0][0]            
__________________________________________________________________________________________________
push_mask_5 (AddMask)           (None, 35, 35, 192)  235200      max_pooling2d_1[0][0]            
__________________________________________________________________________________________________
push_mask_7 (AddMask)           (None, 35, 35, 48)   58800       activation_6[0][0]               
__________________________________________________________________________________________________
push_mask_10 (AddMask)          (None, 35, 35, 96)   117600      activation_9[0][0]               
__________________________________________________________________________________________________
push_mask_11 (AddMask)          (None, 35, 35, 192)  235200      average_pooling2d[0][0]          
__________________________________________________________________________________________________
conv2d_obf_5 (Conv2D)           (None, 35, 35, 76)   14592       push_mask_5[0][0]                
__________________________________________________________________________________________________
conv2d_obf_7 (Conv2D)           (None, 35, 35, 76)   91200       push_mask_7[0][0]                
__________________________________________________________________________________________________
conv2d_obf_10 (Conv2D)          (None, 35, 35, 115)  99360       push_mask_10[0][0]               
__________________________________________________________________________________________________
conv2d_obf_11 (Conv2D)          (None, 35, 35, 38)   7296        push_mask_11[0][0]               
__________________________________________________________________________________________________
lt_5 (LinearTransform)          (None, 35, 35, 64)   192         conv2d_obf_5[0][0]               
__________________________________________________________________________________________________
lt_7 (LinearTransform)          (None, 35, 35, 64)   192         conv2d_obf_7[0][0]               
__________________________________________________________________________________________________
lt_10 (LinearTransform)         (None, 35, 35, 96)   288         conv2d_obf_10[0][0]              
__________________________________________________________________________________________________
lt_11 (LinearTransform)         (None, 35, 35, 32)   96          conv2d_obf_11[0][0]              
__________________________________________________________________________________________________
pop_mask_5 (AddMask)            (None, 35, 35, 64)   78400       lt_5[0][0]                       
__________________________________________________________________________________________________
pop_mask_7 (AddMask)            (None, 35, 35, 64)   78400       lt_7[0][0]                       
__________________________________________________________________________________________________
pop_mask_10 (AddMask)           (None, 35, 35, 96)   117600      lt_10[0][0]                      
__________________________________________________________________________________________________
pop_mask_11 (AddMask)           (None, 35, 35, 32)   39200       lt_11[0][0]                      
__________________________________________________________________________________________________
bn_5 (BatchNormalization)       (None, 35, 35, 64)   192         pop_mask_5[0][0]                 
__________________________________________________________________________________________________
bn_7 (BatchNormalization)       (None, 35, 35, 64)   192         pop_mask_7[0][0]                 
__________________________________________________________________________________________________
bn_10 (BatchNormalization)      (None, 35, 35, 96)   288         pop_mask_10[0][0]                
__________________________________________________________________________________________________
bn_11 (BatchNormalization)      (None, 35, 35, 32)   96          pop_mask_11[0][0]                
__________________________________________________________________________________________________
activation_5 (Activation)       (None, 35, 35, 64)   0           bn_5[0][0]                       
__________________________________________________________________________________________________
activation_7 (Activation)       (None, 35, 35, 64)   0           bn_7[0][0]                       
__________________________________________________________________________________________________
activation_10 (Activation)      (None, 35, 35, 96)   0           bn_10[0][0]                      
__________________________________________________________________________________________________
activation_11 (Activation)      (None, 35, 35, 32)   0           bn_11[0][0]                      
__________________________________________________________________________________________________
mixed0 (Concatenate)            (None, 35, 35, 256)  0           activation_5[0][0]               
                                                                 activation_7[0][0]               
                                                                 activation_10[0][0]              
                                                                 activation_11[0][0]              
__________________________________________________________________________________________________
push_mask_15 (AddMask)          (None, 35, 35, 256)  313600      mixed0[0][0]                     
__________________________________________________________________________________________________
conv2d_obf_15 (Conv2D)          (None, 35, 35, 76)   19456       push_mask_15[0][0]               
__________________________________________________________________________________________________
lt_15 (LinearTransform)         (None, 35, 35, 64)   192         conv2d_obf_15[0][0]              
__________________________________________________________________________________________________
pop_mask_15 (AddMask)           (None, 35, 35, 64)   78400       lt_15[0][0]                      
__________________________________________________________________________________________________
bn_15 (BatchNormalization)      (None, 35, 35, 64)   192         pop_mask_15[0][0]                
__________________________________________________________________________________________________
activation_15 (Activation)      (None, 35, 35, 64)   0           bn_15[0][0]                      
__________________________________________________________________________________________________
push_mask_13 (AddMask)          (None, 35, 35, 256)  313600      mixed0[0][0]                     
__________________________________________________________________________________________________
push_mask_16 (AddMask)          (None, 35, 35, 64)   78400       activation_15[0][0]              
__________________________________________________________________________________________________
conv2d_obf_13 (Conv2D)          (None, 35, 35, 57)   14592       push_mask_13[0][0]               
__________________________________________________________________________________________________
conv2d_obf_16 (Conv2D)          (None, 35, 35, 115)  66240       push_mask_16[0][0]               
__________________________________________________________________________________________________
lt_13 (LinearTransform)         (None, 35, 35, 48)   144         conv2d_obf_13[0][0]              
__________________________________________________________________________________________________
lt_16 (LinearTransform)         (None, 35, 35, 96)   288         conv2d_obf_16[0][0]              
__________________________________________________________________________________________________
pop_mask_13 (AddMask)           (None, 35, 35, 48)   58800       lt_13[0][0]                      
__________________________________________________________________________________________________
pop_mask_16 (AddMask)           (None, 35, 35, 96)   117600      lt_16[0][0]                      
__________________________________________________________________________________________________
bn_13 (BatchNormalization)      (None, 35, 35, 48)   144         pop_mask_13[0][0]                
__________________________________________________________________________________________________
bn_16 (BatchNormalization)      (None, 35, 35, 96)   288         pop_mask_16[0][0]                
__________________________________________________________________________________________________
activation_13 (Activation)      (None, 35, 35, 48)   0           bn_13[0][0]                      
__________________________________________________________________________________________________
activation_16 (Activation)      (None, 35, 35, 96)   0           bn_16[0][0]                      
__________________________________________________________________________________________________
average_pooling2d_1 (AveragePoo (None, 35, 35, 256)  0           mixed0[0][0]                     
__________________________________________________________________________________________________
push_mask_12 (AddMask)          (None, 35, 35, 256)  313600      mixed0[0][0]                     
__________________________________________________________________________________________________
push_mask_14 (AddMask)          (None, 35, 35, 48)   58800       activation_13[0][0]              
__________________________________________________________________________________________________
push_mask_17 (AddMask)          (None, 35, 35, 96)   117600      activation_16[0][0]              
__________________________________________________________________________________________________
push_mask_18 (AddMask)          (None, 35, 35, 256)  313600      average_pooling2d_1[0][0]        
__________________________________________________________________________________________________
conv2d_obf_12 (Conv2D)          (None, 35, 35, 76)   19456       push_mask_12[0][0]               
__________________________________________________________________________________________________
conv2d_obf_14 (Conv2D)          (None, 35, 35, 76)   91200       push_mask_14[0][0]               
__________________________________________________________________________________________________
conv2d_obf_17 (Conv2D)          (None, 35, 35, 115)  99360       push_mask_17[0][0]               
__________________________________________________________________________________________________
conv2d_obf_18 (Conv2D)          (None, 35, 35, 76)   19456       push_mask_18[0][0]               
__________________________________________________________________________________________________
lt_12 (LinearTransform)         (None, 35, 35, 64)   192         conv2d_obf_12[0][0]              
__________________________________________________________________________________________________
lt_14 (LinearTransform)         (None, 35, 35, 64)   192         conv2d_obf_14[0][0]              
__________________________________________________________________________________________________
lt_17 (LinearTransform)         (None, 35, 35, 96)   288         conv2d_obf_17[0][0]              
__________________________________________________________________________________________________
lt_18 (LinearTransform)         (None, 35, 35, 64)   192         conv2d_obf_18[0][0]              
__________________________________________________________________________________________________
pop_mask_12 (AddMask)           (None, 35, 35, 64)   78400       lt_12[0][0]                      
__________________________________________________________________________________________________
pop_mask_14 (AddMask)           (None, 35, 35, 64)   78400       lt_14[0][0]                      
__________________________________________________________________________________________________
pop_mask_17 (AddMask)           (None, 35, 35, 96)   117600      lt_17[0][0]                      
__________________________________________________________________________________________________
pop_mask_18 (AddMask)           (None, 35, 35, 64)   78400       lt_18[0][0]                      
__________________________________________________________________________________________________
bn_12 (BatchNormalization)      (None, 35, 35, 64)   192         pop_mask_12[0][0]                
__________________________________________________________________________________________________
bn_14 (BatchNormalization)      (None, 35, 35, 64)   192         pop_mask_14[0][0]                
__________________________________________________________________________________________________
bn_17 (BatchNormalization)      (None, 35, 35, 96)   288         pop_mask_17[0][0]                
__________________________________________________________________________________________________
bn_18 (BatchNormalization)      (None, 35, 35, 64)   192         pop_mask_18[0][0]                
__________________________________________________________________________________________________
activation_12 (Activation)      (None, 35, 35, 64)   0           bn_12[0][0]                      
__________________________________________________________________________________________________
activation_14 (Activation)      (None, 35, 35, 64)   0           bn_14[0][0]                      
__________________________________________________________________________________________________
activation_17 (Activation)      (None, 35, 35, 96)   0           bn_17[0][0]                      
__________________________________________________________________________________________________
activation_18 (Activation)      (None, 35, 35, 64)   0           bn_18[0][0]                      
__________________________________________________________________________________________________
mixed1 (Concatenate)            (None, 35, 35, 288)  0           activation_12[0][0]              
                                                                 activation_14[0][0]              
                                                                 activation_17[0][0]              
                                                                 activation_18[0][0]              
__________________________________________________________________________________________________
push_mask_22 (AddMask)          (None, 35, 35, 288)  352800      mixed1[0][0]                     
__________________________________________________________________________________________________
conv2d_obf_22 (Conv2D)          (None, 35, 35, 76)   21888       push_mask_22[0][0]               
__________________________________________________________________________________________________
lt_22 (LinearTransform)         (None, 35, 35, 64)   192         conv2d_obf_22[0][0]              
__________________________________________________________________________________________________
pop_mask_22 (AddMask)           (None, 35, 35, 64)   78400       lt_22[0][0]                      
__________________________________________________________________________________________________
bn_22 (BatchNormalization)      (None, 35, 35, 64)   192         pop_mask_22[0][0]                
__________________________________________________________________________________________________
activation_22 (Activation)      (None, 35, 35, 64)   0           bn_22[0][0]                      
__________________________________________________________________________________________________
push_mask_20 (AddMask)          (None, 35, 35, 288)  352800      mixed1[0][0]                     
__________________________________________________________________________________________________
push_mask_23 (AddMask)          (None, 35, 35, 64)   78400       activation_22[0][0]              
__________________________________________________________________________________________________
conv2d_obf_20 (Conv2D)          (None, 35, 35, 57)   16416       push_mask_20[0][0]               
__________________________________________________________________________________________________
conv2d_obf_23 (Conv2D)          (None, 35, 35, 115)  66240       push_mask_23[0][0]               
__________________________________________________________________________________________________
lt_20 (LinearTransform)         (None, 35, 35, 48)   144         conv2d_obf_20[0][0]              
__________________________________________________________________________________________________
lt_23 (LinearTransform)         (None, 35, 35, 96)   288         conv2d_obf_23[0][0]              
__________________________________________________________________________________________________
pop_mask_20 (AddMask)           (None, 35, 35, 48)   58800       lt_20[0][0]                      
__________________________________________________________________________________________________
pop_mask_23 (AddMask)           (None, 35, 35, 96)   117600      lt_23[0][0]                      
__________________________________________________________________________________________________
bn_20 (BatchNormalization)      (None, 35, 35, 48)   144         pop_mask_20[0][0]                
__________________________________________________________________________________________________
bn_23 (BatchNormalization)      (None, 35, 35, 96)   288         pop_mask_23[0][0]                
__________________________________________________________________________________________________
activation_20 (Activation)      (None, 35, 35, 48)   0           bn_20[0][0]                      
__________________________________________________________________________________________________
activation_23 (Activation)      (None, 35, 35, 96)   0           bn_23[0][0]                      
__________________________________________________________________________________________________
average_pooling2d_2 (AveragePoo (None, 35, 35, 288)  0           mixed1[0][0]                     
__________________________________________________________________________________________________
push_mask_19 (AddMask)          (None, 35, 35, 288)  352800      mixed1[0][0]                     
__________________________________________________________________________________________________
push_mask_21 (AddMask)          (None, 35, 35, 48)   58800       activation_20[0][0]              
__________________________________________________________________________________________________
push_mask_24 (AddMask)          (None, 35, 35, 96)   117600      activation_23[0][0]              
__________________________________________________________________________________________________
push_mask_25 (AddMask)          (None, 35, 35, 288)  352800      average_pooling2d_2[0][0]        
__________________________________________________________________________________________________
conv2d_obf_19 (Conv2D)          (None, 35, 35, 76)   21888       push_mask_19[0][0]               
__________________________________________________________________________________________________
conv2d_obf_21 (Conv2D)          (None, 35, 35, 76)   91200       push_mask_21[0][0]               
__________________________________________________________________________________________________
conv2d_obf_24 (Conv2D)          (None, 35, 35, 115)  99360       push_mask_24[0][0]               
__________________________________________________________________________________________________
conv2d_obf_25 (Conv2D)          (None, 35, 35, 76)   21888       push_mask_25[0][0]               
__________________________________________________________________________________________________
lt_19 (LinearTransform)         (None, 35, 35, 64)   192         conv2d_obf_19[0][0]              
__________________________________________________________________________________________________
lt_21 (LinearTransform)         (None, 35, 35, 64)   192         conv2d_obf_21[0][0]              
__________________________________________________________________________________________________
lt_24 (LinearTransform)         (None, 35, 35, 96)   288         conv2d_obf_24[0][0]              
__________________________________________________________________________________________________
lt_25 (LinearTransform)         (None, 35, 35, 64)   192         conv2d_obf_25[0][0]              
__________________________________________________________________________________________________
pop_mask_19 (AddMask)           (None, 35, 35, 64)   78400       lt_19[0][0]                      
__________________________________________________________________________________________________
pop_mask_21 (AddMask)           (None, 35, 35, 64)   78400       lt_21[0][0]                      
__________________________________________________________________________________________________
pop_mask_24 (AddMask)           (None, 35, 35, 96)   117600      lt_24[0][0]                      
__________________________________________________________________________________________________
pop_mask_25 (AddMask)           (None, 35, 35, 64)   78400       lt_25[0][0]                      
__________________________________________________________________________________________________
bn_19 (BatchNormalization)      (None, 35, 35, 64)   192         pop_mask_19[0][0]                
__________________________________________________________________________________________________
bn_21 (BatchNormalization)      (None, 35, 35, 64)   192         pop_mask_21[0][0]                
__________________________________________________________________________________________________
bn_24 (BatchNormalization)      (None, 35, 35, 96)   288         pop_mask_24[0][0]                
__________________________________________________________________________________________________
bn_25 (BatchNormalization)      (None, 35, 35, 64)   192         pop_mask_25[0][0]                
__________________________________________________________________________________________________
activation_19 (Activation)      (None, 35, 35, 64)   0           bn_19[0][0]                      
__________________________________________________________________________________________________
activation_21 (Activation)      (None, 35, 35, 64)   0           bn_21[0][0]                      
__________________________________________________________________________________________________
activation_24 (Activation)      (None, 35, 35, 96)   0           bn_24[0][0]                      
__________________________________________________________________________________________________
activation_25 (Activation)      (None, 35, 35, 64)   0           bn_25[0][0]                      
__________________________________________________________________________________________________
mixed2 (Concatenate)            (None, 35, 35, 288)  0           activation_19[0][0]              
                                                                 activation_21[0][0]              
                                                                 activation_24[0][0]              
                                                                 activation_25[0][0]              
__________________________________________________________________________________________________
push_mask_27 (AddMask)          (None, 35, 35, 288)  352800      mixed2[0][0]                     
__________________________________________________________________________________________________
conv2d_obf_27 (Conv2D)          (None, 35, 35, 76)   21888       push_mask_27[0][0]               
__________________________________________________________________________________________________
lt_27 (LinearTransform)         (None, 35, 35, 64)   192         conv2d_obf_27[0][0]              
__________________________________________________________________________________________________
pop_mask_27 (AddMask)           (None, 35, 35, 64)   78400       lt_27[0][0]                      
__________________________________________________________________________________________________
bn_27 (BatchNormalization)      (None, 35, 35, 64)   192         pop_mask_27[0][0]                
__________________________________________________________________________________________________
activation_27 (Activation)      (None, 35, 35, 64)   0           bn_27[0][0]                      
__________________________________________________________________________________________________
push_mask_28 (AddMask)          (None, 35, 35, 64)   78400       activation_27[0][0]              
__________________________________________________________________________________________________
conv2d_obf_28 (Conv2D)          (None, 35, 35, 115)  66240       push_mask_28[0][0]               
__________________________________________________________________________________________________
lt_28 (LinearTransform)         (None, 35, 35, 96)   288         conv2d_obf_28[0][0]              
__________________________________________________________________________________________________
pop_mask_28 (AddMask)           (None, 35, 35, 96)   117600      lt_28[0][0]                      
__________________________________________________________________________________________________
bn_28 (BatchNormalization)      (None, 35, 35, 96)   288         pop_mask_28[0][0]                
__________________________________________________________________________________________________
activation_28 (Activation)      (None, 35, 35, 96)   0           bn_28[0][0]                      
__________________________________________________________________________________________________
push_mask_26 (AddMask)          (None, 35, 35, 288)  352800      mixed2[0][0]                     
__________________________________________________________________________________________________
push_mask_29 (AddMask)          (None, 35, 35, 96)   117600      activation_28[0][0]              
__________________________________________________________________________________________________
conv2d_obf_26 (Conv2D)          (None, 17, 17, 460)  1192320     push_mask_26[0][0]               
__________________________________________________________________________________________________
conv2d_obf_29 (Conv2D)          (None, 17, 17, 115)  99360       push_mask_29[0][0]               
__________________________________________________________________________________________________
lt_26 (LinearTransform)         (None, 17, 17, 384)  1152        conv2d_obf_26[0][0]              
__________________________________________________________________________________________________
lt_29 (LinearTransform)         (None, 17, 17, 96)   288         conv2d_obf_29[0][0]              
__________________________________________________________________________________________________
pop_mask_26 (AddMask)           (None, 17, 17, 384)  110976      lt_26[0][0]                      
__________________________________________________________________________________________________
pop_mask_29 (AddMask)           (None, 17, 17, 96)   27744       lt_29[0][0]                      
__________________________________________________________________________________________________
bn_26 (BatchNormalization)      (None, 17, 17, 384)  1152        pop_mask_26[0][0]                
__________________________________________________________________________________________________
bn_29 (BatchNormalization)      (None, 17, 17, 96)   288         pop_mask_29[0][0]                
__________________________________________________________________________________________________
activation_26 (Activation)      (None, 17, 17, 384)  0           bn_26[0][0]                      
__________________________________________________________________________________________________
activation_29 (Activation)      (None, 17, 17, 96)   0           bn_29[0][0]                      
__________________________________________________________________________________________________
max_pooling2d_2 (MaxPooling2D)  (None, 17, 17, 288)  0           mixed2[0][0]                     
__________________________________________________________________________________________________
mixed3 (Concatenate)            (None, 17, 17, 768)  0           activation_26[0][0]              
                                                                 activation_29[0][0]              
                                                                 max_pooling2d_2[0][0]            
__________________________________________________________________________________________________
push_mask_34 (AddMask)          (None, 17, 17, 768)  221952      mixed3[0][0]                     
__________________________________________________________________________________________________
conv2d_obf_34 (Conv2D)          (None, 17, 17, 153)  117504      push_mask_34[0][0]               
__________________________________________________________________________________________________
lt_34 (LinearTransform)         (None, 17, 17, 128)  384         conv2d_obf_34[0][0]              
__________________________________________________________________________________________________
pop_mask_34 (AddMask)           (None, 17, 17, 128)  36992       lt_34[0][0]                      
__________________________________________________________________________________________________
bn_34 (BatchNormalization)      (None, 17, 17, 128)  384         pop_mask_34[0][0]                
__________________________________________________________________________________________________
activation_34 (Activation)      (None, 17, 17, 128)  0           bn_34[0][0]                      
__________________________________________________________________________________________________
push_mask_35 (AddMask)          (None, 17, 17, 128)  36992       activation_34[0][0]              
__________________________________________________________________________________________________
conv2d_obf_35 (Conv2D)          (None, 17, 17, 153)  137088      push_mask_35[0][0]               
__________________________________________________________________________________________________
lt_35 (LinearTransform)         (None, 17, 17, 128)  384         conv2d_obf_35[0][0]              
__________________________________________________________________________________________________
pop_mask_35 (AddMask)           (None, 17, 17, 128)  36992       lt_35[0][0]                      
__________________________________________________________________________________________________
bn_35 (BatchNormalization)      (None, 17, 17, 128)  384         pop_mask_35[0][0]                
__________________________________________________________________________________________________
activation_35 (Activation)      (None, 17, 17, 128)  0           bn_35[0][0]                      
__________________________________________________________________________________________________
push_mask_31 (AddMask)          (None, 17, 17, 768)  221952      mixed3[0][0]                     
__________________________________________________________________________________________________
push_mask_36 (AddMask)          (None, 17, 17, 128)  36992       activation_35[0][0]              
__________________________________________________________________________________________________
conv2d_obf_31 (Conv2D)          (None, 17, 17, 153)  117504      push_mask_31[0][0]               
__________________________________________________________________________________________________
conv2d_obf_36 (Conv2D)          (None, 17, 17, 153)  137088      push_mask_36[0][0]               
__________________________________________________________________________________________________
lt_31 (LinearTransform)         (None, 17, 17, 128)  384         conv2d_obf_31[0][0]              
__________________________________________________________________________________________________
lt_36 (LinearTransform)         (None, 17, 17, 128)  384         conv2d_obf_36[0][0]              
__________________________________________________________________________________________________
pop_mask_31 (AddMask)           (None, 17, 17, 128)  36992       lt_31[0][0]                      
__________________________________________________________________________________________________
pop_mask_36 (AddMask)           (None, 17, 17, 128)  36992       lt_36[0][0]                      
__________________________________________________________________________________________________
bn_31 (BatchNormalization)      (None, 17, 17, 128)  384         pop_mask_31[0][0]                
__________________________________________________________________________________________________
bn_36 (BatchNormalization)      (None, 17, 17, 128)  384         pop_mask_36[0][0]                
__________________________________________________________________________________________________
activation_31 (Activation)      (None, 17, 17, 128)  0           bn_31[0][0]                      
__________________________________________________________________________________________________
activation_36 (Activation)      (None, 17, 17, 128)  0           bn_36[0][0]                      
__________________________________________________________________________________________________
push_mask_32 (AddMask)          (None, 17, 17, 128)  36992       activation_31[0][0]              
__________________________________________________________________________________________________
push_mask_37 (AddMask)          (None, 17, 17, 128)  36992       activation_36[0][0]              
__________________________________________________________________________________________________
conv2d_obf_32 (Conv2D)          (None, 17, 17, 153)  137088      push_mask_32[0][0]               
__________________________________________________________________________________________________
conv2d_obf_37 (Conv2D)          (None, 17, 17, 153)  137088      push_mask_37[0][0]               
__________________________________________________________________________________________________
lt_32 (LinearTransform)         (None, 17, 17, 128)  384         conv2d_obf_32[0][0]              
__________________________________________________________________________________________________
lt_37 (LinearTransform)         (None, 17, 17, 128)  384         conv2d_obf_37[0][0]              
__________________________________________________________________________________________________
pop_mask_32 (AddMask)           (None, 17, 17, 128)  36992       lt_32[0][0]                      
__________________________________________________________________________________________________
pop_mask_37 (AddMask)           (None, 17, 17, 128)  36992       lt_37[0][0]                      
__________________________________________________________________________________________________
bn_32 (BatchNormalization)      (None, 17, 17, 128)  384         pop_mask_32[0][0]                
__________________________________________________________________________________________________
bn_37 (BatchNormalization)      (None, 17, 17, 128)  384         pop_mask_37[0][0]                
__________________________________________________________________________________________________
activation_32 (Activation)      (None, 17, 17, 128)  0           bn_32[0][0]                      
__________________________________________________________________________________________________
activation_37 (Activation)      (None, 17, 17, 128)  0           bn_37[0][0]                      
__________________________________________________________________________________________________
average_pooling2d_3 (AveragePoo (None, 17, 17, 768)  0           mixed3[0][0]                     
__________________________________________________________________________________________________
push_mask_30 (AddMask)          (None, 17, 17, 768)  221952      mixed3[0][0]                     
__________________________________________________________________________________________________
push_mask_33 (AddMask)          (None, 17, 17, 128)  36992       activation_32[0][0]              
__________________________________________________________________________________________________
push_mask_38 (AddMask)          (None, 17, 17, 128)  36992       activation_37[0][0]              
__________________________________________________________________________________________________
push_mask_39 (AddMask)          (None, 17, 17, 768)  221952      average_pooling2d_3[0][0]        
__________________________________________________________________________________________________
conv2d_obf_30 (Conv2D)          (None, 17, 17, 230)  176640      push_mask_30[0][0]               
__________________________________________________________________________________________________
conv2d_obf_33 (Conv2D)          (None, 17, 17, 230)  206080      push_mask_33[0][0]               
__________________________________________________________________________________________________
conv2d_obf_38 (Conv2D)          (None, 17, 17, 230)  206080      push_mask_38[0][0]               
__________________________________________________________________________________________________
conv2d_obf_39 (Conv2D)          (None, 17, 17, 230)  176640      push_mask_39[0][0]               
__________________________________________________________________________________________________
lt_30 (LinearTransform)         (None, 17, 17, 192)  576         conv2d_obf_30[0][0]              
__________________________________________________________________________________________________
lt_33 (LinearTransform)         (None, 17, 17, 192)  576         conv2d_obf_33[0][0]              
__________________________________________________________________________________________________
lt_38 (LinearTransform)         (None, 17, 17, 192)  576         conv2d_obf_38[0][0]              
__________________________________________________________________________________________________
lt_39 (LinearTransform)         (None, 17, 17, 192)  576         conv2d_obf_39[0][0]              
__________________________________________________________________________________________________
pop_mask_30 (AddMask)           (None, 17, 17, 192)  55488       lt_30[0][0]                      
__________________________________________________________________________________________________
pop_mask_33 (AddMask)           (None, 17, 17, 192)  55488       lt_33[0][0]                      
__________________________________________________________________________________________________
pop_mask_38 (AddMask)           (None, 17, 17, 192)  55488       lt_38[0][0]                      
__________________________________________________________________________________________________
pop_mask_39 (AddMask)           (None, 17, 17, 192)  55488       lt_39[0][0]                      
__________________________________________________________________________________________________
bn_30 (BatchNormalization)      (None, 17, 17, 192)  576         pop_mask_30[0][0]                
__________________________________________________________________________________________________
bn_33 (BatchNormalization)      (None, 17, 17, 192)  576         pop_mask_33[0][0]                
__________________________________________________________________________________________________
bn_38 (BatchNormalization)      (None, 17, 17, 192)  576         pop_mask_38[0][0]                
__________________________________________________________________________________________________
bn_39 (BatchNormalization)      (None, 17, 17, 192)  576         pop_mask_39[0][0]                
__________________________________________________________________________________________________
activation_30 (Activation)      (None, 17, 17, 192)  0           bn_30[0][0]                      
__________________________________________________________________________________________________
activation_33 (Activation)      (None, 17, 17, 192)  0           bn_33[0][0]                      
__________________________________________________________________________________________________
activation_38 (Activation)      (None, 17, 17, 192)  0           bn_38[0][0]                      
__________________________________________________________________________________________________
activation_39 (Activation)      (None, 17, 17, 192)  0           bn_39[0][0]                      
__________________________________________________________________________________________________
mixed4 (Concatenate)            (None, 17, 17, 768)  0           activation_30[0][0]              
                                                                 activation_33[0][0]              
                                                                 activation_38[0][0]              
                                                                 activation_39[0][0]              
__________________________________________________________________________________________________
push_mask_44 (AddMask)          (None, 17, 17, 768)  221952      mixed4[0][0]                     
__________________________________________________________________________________________________
conv2d_obf_44 (Conv2D)          (None, 17, 17, 192)  147456      push_mask_44[0][0]               
__________________________________________________________________________________________________
lt_44 (LinearTransform)         (None, 17, 17, 160)  480         conv2d_obf_44[0][0]              
__________________________________________________________________________________________________
pop_mask_44 (AddMask)           (None, 17, 17, 160)  46240       lt_44[0][0]                      
__________________________________________________________________________________________________
bn_44 (BatchNormalization)      (None, 17, 17, 160)  480         pop_mask_44[0][0]                
__________________________________________________________________________________________________
activation_44 (Activation)      (None, 17, 17, 160)  0           bn_44[0][0]                      
__________________________________________________________________________________________________
push_mask_45 (AddMask)          (None, 17, 17, 160)  46240       activation_44[0][0]              
__________________________________________________________________________________________________
conv2d_obf_45 (Conv2D)          (None, 17, 17, 192)  215040      push_mask_45[0][0]               
__________________________________________________________________________________________________
lt_45 (LinearTransform)         (None, 17, 17, 160)  480         conv2d_obf_45[0][0]              
__________________________________________________________________________________________________
pop_mask_45 (AddMask)           (None, 17, 17, 160)  46240       lt_45[0][0]                      
__________________________________________________________________________________________________
bn_45 (BatchNormalization)      (None, 17, 17, 160)  480         pop_mask_45[0][0]                
__________________________________________________________________________________________________
activation_45 (Activation)      (None, 17, 17, 160)  0           bn_45[0][0]                      
__________________________________________________________________________________________________
push_mask_41 (AddMask)          (None, 17, 17, 768)  221952      mixed4[0][0]                     
__________________________________________________________________________________________________
push_mask_46 (AddMask)          (None, 17, 17, 160)  46240       activation_45[0][0]              
__________________________________________________________________________________________________
conv2d_obf_41 (Conv2D)          (None, 17, 17, 192)  147456      push_mask_41[0][0]               
__________________________________________________________________________________________________
conv2d_obf_46 (Conv2D)          (None, 17, 17, 192)  215040      push_mask_46[0][0]               
__________________________________________________________________________________________________
lt_41 (LinearTransform)         (None, 17, 17, 160)  480         conv2d_obf_41[0][0]              
__________________________________________________________________________________________________
lt_46 (LinearTransform)         (None, 17, 17, 160)  480         conv2d_obf_46[0][0]              
__________________________________________________________________________________________________
pop_mask_41 (AddMask)           (None, 17, 17, 160)  46240       lt_41[0][0]                      
__________________________________________________________________________________________________
pop_mask_46 (AddMask)           (None, 17, 17, 160)  46240       lt_46[0][0]                      
__________________________________________________________________________________________________
bn_41 (BatchNormalization)      (None, 17, 17, 160)  480         pop_mask_41[0][0]                
__________________________________________________________________________________________________
bn_46 (BatchNormalization)      (None, 17, 17, 160)  480         pop_mask_46[0][0]                
__________________________________________________________________________________________________
activation_41 (Activation)      (None, 17, 17, 160)  0           bn_41[0][0]                      
__________________________________________________________________________________________________
activation_46 (Activation)      (None, 17, 17, 160)  0           bn_46[0][0]                      
__________________________________________________________________________________________________
push_mask_42 (AddMask)          (None, 17, 17, 160)  46240       activation_41[0][0]              
__________________________________________________________________________________________________
push_mask_47 (AddMask)          (None, 17, 17, 160)  46240       activation_46[0][0]              
__________________________________________________________________________________________________
conv2d_obf_42 (Conv2D)          (None, 17, 17, 192)  215040      push_mask_42[0][0]               
__________________________________________________________________________________________________
conv2d_obf_47 (Conv2D)          (None, 17, 17, 192)  215040      push_mask_47[0][0]               
__________________________________________________________________________________________________
lt_42 (LinearTransform)         (None, 17, 17, 160)  480         conv2d_obf_42[0][0]              
__________________________________________________________________________________________________
lt_47 (LinearTransform)         (None, 17, 17, 160)  480         conv2d_obf_47[0][0]              
__________________________________________________________________________________________________
pop_mask_42 (AddMask)           (None, 17, 17, 160)  46240       lt_42[0][0]                      
__________________________________________________________________________________________________
pop_mask_47 (AddMask)           (None, 17, 17, 160)  46240       lt_47[0][0]                      
__________________________________________________________________________________________________
bn_42 (BatchNormalization)      (None, 17, 17, 160)  480         pop_mask_42[0][0]                
__________________________________________________________________________________________________
bn_47 (BatchNormalization)      (None, 17, 17, 160)  480         pop_mask_47[0][0]                
__________________________________________________________________________________________________
activation_42 (Activation)      (None, 17, 17, 160)  0           bn_42[0][0]                      
__________________________________________________________________________________________________
activation_47 (Activation)      (None, 17, 17, 160)  0           bn_47[0][0]                      
__________________________________________________________________________________________________
average_pooling2d_4 (AveragePoo (None, 17, 17, 768)  0           mixed4[0][0]                     
__________________________________________________________________________________________________
push_mask_40 (AddMask)          (None, 17, 17, 768)  221952      mixed4[0][0]                     
__________________________________________________________________________________________________
push_mask_43 (AddMask)          (None, 17, 17, 160)  46240       activation_42[0][0]              
__________________________________________________________________________________________________
push_mask_48 (AddMask)          (None, 17, 17, 160)  46240       activation_47[0][0]              
__________________________________________________________________________________________________
push_mask_49 (AddMask)          (None, 17, 17, 768)  221952      average_pooling2d_4[0][0]        
__________________________________________________________________________________________________
conv2d_obf_40 (Conv2D)          (None, 17, 17, 230)  176640      push_mask_40[0][0]               
__________________________________________________________________________________________________
conv2d_obf_43 (Conv2D)          (None, 17, 17, 230)  257600      push_mask_43[0][0]               
__________________________________________________________________________________________________
conv2d_obf_48 (Conv2D)          (None, 17, 17, 230)  257600      push_mask_48[0][0]               
__________________________________________________________________________________________________
conv2d_obf_49 (Conv2D)          (None, 17, 17, 230)  176640      push_mask_49[0][0]               
__________________________________________________________________________________________________
lt_40 (LinearTransform)         (None, 17, 17, 192)  576         conv2d_obf_40[0][0]              
__________________________________________________________________________________________________
lt_43 (LinearTransform)         (None, 17, 17, 192)  576         conv2d_obf_43[0][0]              
__________________________________________________________________________________________________
lt_48 (LinearTransform)         (None, 17, 17, 192)  576         conv2d_obf_48[0][0]              
__________________________________________________________________________________________________
lt_49 (LinearTransform)         (None, 17, 17, 192)  576         conv2d_obf_49[0][0]              
__________________________________________________________________________________________________
pop_mask_40 (AddMask)           (None, 17, 17, 192)  55488       lt_40[0][0]                      
__________________________________________________________________________________________________
pop_mask_43 (AddMask)           (None, 17, 17, 192)  55488       lt_43[0][0]                      
__________________________________________________________________________________________________
pop_mask_48 (AddMask)           (None, 17, 17, 192)  55488       lt_48[0][0]                      
__________________________________________________________________________________________________
pop_mask_49 (AddMask)           (None, 17, 17, 192)  55488       lt_49[0][0]                      
__________________________________________________________________________________________________
bn_40 (BatchNormalization)      (None, 17, 17, 192)  576         pop_mask_40[0][0]                
__________________________________________________________________________________________________
bn_43 (BatchNormalization)      (None, 17, 17, 192)  576         pop_mask_43[0][0]                
__________________________________________________________________________________________________
bn_48 (BatchNormalization)      (None, 17, 17, 192)  576         pop_mask_48[0][0]                
__________________________________________________________________________________________________
bn_49 (BatchNormalization)      (None, 17, 17, 192)  576         pop_mask_49[0][0]                
__________________________________________________________________________________________________
activation_40 (Activation)      (None, 17, 17, 192)  0           bn_40[0][0]                      
__________________________________________________________________________________________________
activation_43 (Activation)      (None, 17, 17, 192)  0           bn_43[0][0]                      
__________________________________________________________________________________________________
activation_48 (Activation)      (None, 17, 17, 192)  0           bn_48[0][0]                      
__________________________________________________________________________________________________
activation_49 (Activation)      (None, 17, 17, 192)  0           bn_49[0][0]                      
__________________________________________________________________________________________________
mixed5 (Concatenate)            (None, 17, 17, 768)  0           activation_40[0][0]              
                                                                 activation_43[0][0]              
                                                                 activation_48[0][0]              
                                                                 activation_49[0][0]              
__________________________________________________________________________________________________
push_mask_54 (AddMask)          (None, 17, 17, 768)  221952      mixed5[0][0]                     
__________________________________________________________________________________________________
conv2d_obf_54 (Conv2D)          (None, 17, 17, 192)  147456      push_mask_54[0][0]               
__________________________________________________________________________________________________
lt_54 (LinearTransform)         (None, 17, 17, 160)  480         conv2d_obf_54[0][0]              
__________________________________________________________________________________________________
pop_mask_54 (AddMask)           (None, 17, 17, 160)  46240       lt_54[0][0]                      
__________________________________________________________________________________________________
bn_54 (BatchNormalization)      (None, 17, 17, 160)  480         pop_mask_54[0][0]                
__________________________________________________________________________________________________
activation_54 (Activation)      (None, 17, 17, 160)  0           bn_54[0][0]                      
__________________________________________________________________________________________________
push_mask_55 (AddMask)          (None, 17, 17, 160)  46240       activation_54[0][0]              
__________________________________________________________________________________________________
conv2d_obf_55 (Conv2D)          (None, 17, 17, 192)  215040      push_mask_55[0][0]               
__________________________________________________________________________________________________
lt_55 (LinearTransform)         (None, 17, 17, 160)  480         conv2d_obf_55[0][0]              
__________________________________________________________________________________________________
pop_mask_55 (AddMask)           (None, 17, 17, 160)  46240       lt_55[0][0]                      
__________________________________________________________________________________________________
bn_55 (BatchNormalization)      (None, 17, 17, 160)  480         pop_mask_55[0][0]                
__________________________________________________________________________________________________
activation_55 (Activation)      (None, 17, 17, 160)  0           bn_55[0][0]                      
__________________________________________________________________________________________________
push_mask_51 (AddMask)          (None, 17, 17, 768)  221952      mixed5[0][0]                     
__________________________________________________________________________________________________
push_mask_56 (AddMask)          (None, 17, 17, 160)  46240       activation_55[0][0]              
__________________________________________________________________________________________________
conv2d_obf_51 (Conv2D)          (None, 17, 17, 192)  147456      push_mask_51[0][0]               
__________________________________________________________________________________________________
conv2d_obf_56 (Conv2D)          (None, 17, 17, 192)  215040      push_mask_56[0][0]               
__________________________________________________________________________________________________
lt_51 (LinearTransform)         (None, 17, 17, 160)  480         conv2d_obf_51[0][0]              
__________________________________________________________________________________________________
lt_56 (LinearTransform)         (None, 17, 17, 160)  480         conv2d_obf_56[0][0]              
__________________________________________________________________________________________________
pop_mask_51 (AddMask)           (None, 17, 17, 160)  46240       lt_51[0][0]                      
__________________________________________________________________________________________________
pop_mask_56 (AddMask)           (None, 17, 17, 160)  46240       lt_56[0][0]                      
__________________________________________________________________________________________________
bn_51 (BatchNormalization)      (None, 17, 17, 160)  480         pop_mask_51[0][0]                
__________________________________________________________________________________________________
bn_56 (BatchNormalization)      (None, 17, 17, 160)  480         pop_mask_56[0][0]                
__________________________________________________________________________________________________
activation_51 (Activation)      (None, 17, 17, 160)  0           bn_51[0][0]                      
__________________________________________________________________________________________________
activation_56 (Activation)      (None, 17, 17, 160)  0           bn_56[0][0]                      
__________________________________________________________________________________________________
push_mask_52 (AddMask)          (None, 17, 17, 160)  46240       activation_51[0][0]              
__________________________________________________________________________________________________
push_mask_57 (AddMask)          (None, 17, 17, 160)  46240       activation_56[0][0]              
__________________________________________________________________________________________________
conv2d_obf_52 (Conv2D)          (None, 17, 17, 192)  215040      push_mask_52[0][0]               
__________________________________________________________________________________________________
conv2d_obf_57 (Conv2D)          (None, 17, 17, 192)  215040      push_mask_57[0][0]               
__________________________________________________________________________________________________
lt_52 (LinearTransform)         (None, 17, 17, 160)  480         conv2d_obf_52[0][0]              
__________________________________________________________________________________________________
lt_57 (LinearTransform)         (None, 17, 17, 160)  480         conv2d_obf_57[0][0]              
__________________________________________________________________________________________________
pop_mask_52 (AddMask)           (None, 17, 17, 160)  46240       lt_52[0][0]                      
__________________________________________________________________________________________________
pop_mask_57 (AddMask)           (None, 17, 17, 160)  46240       lt_57[0][0]                      
__________________________________________________________________________________________________
bn_52 (BatchNormalization)      (None, 17, 17, 160)  480         pop_mask_52[0][0]                
__________________________________________________________________________________________________
bn_57 (BatchNormalization)      (None, 17, 17, 160)  480         pop_mask_57[0][0]                
__________________________________________________________________________________________________
activation_52 (Activation)      (None, 17, 17, 160)  0           bn_52[0][0]                      
__________________________________________________________________________________________________
activation_57 (Activation)      (None, 17, 17, 160)  0           bn_57[0][0]                      
__________________________________________________________________________________________________
average_pooling2d_5 (AveragePoo (None, 17, 17, 768)  0           mixed5[0][0]                     
__________________________________________________________________________________________________
push_mask_50 (AddMask)          (None, 17, 17, 768)  221952      mixed5[0][0]                     
__________________________________________________________________________________________________
push_mask_53 (AddMask)          (None, 17, 17, 160)  46240       activation_52[0][0]              
__________________________________________________________________________________________________
push_mask_58 (AddMask)          (None, 17, 17, 160)  46240       activation_57[0][0]              
__________________________________________________________________________________________________
push_mask_59 (AddMask)          (None, 17, 17, 768)  221952      average_pooling2d_5[0][0]        
__________________________________________________________________________________________________
conv2d_obf_50 (Conv2D)          (None, 17, 17, 230)  176640      push_mask_50[0][0]               
__________________________________________________________________________________________________
conv2d_obf_53 (Conv2D)          (None, 17, 17, 230)  257600      push_mask_53[0][0]               
__________________________________________________________________________________________________
conv2d_obf_58 (Conv2D)          (None, 17, 17, 230)  257600      push_mask_58[0][0]               
__________________________________________________________________________________________________
conv2d_obf_59 (Conv2D)          (None, 17, 17, 230)  176640      push_mask_59[0][0]               
__________________________________________________________________________________________________
lt_50 (LinearTransform)         (None, 17, 17, 192)  576         conv2d_obf_50[0][0]              
__________________________________________________________________________________________________
lt_53 (LinearTransform)         (None, 17, 17, 192)  576         conv2d_obf_53[0][0]              
__________________________________________________________________________________________________
lt_58 (LinearTransform)         (None, 17, 17, 192)  576         conv2d_obf_58[0][0]              
__________________________________________________________________________________________________
lt_59 (LinearTransform)         (None, 17, 17, 192)  576         conv2d_obf_59[0][0]              
__________________________________________________________________________________________________
pop_mask_50 (AddMask)           (None, 17, 17, 192)  55488       lt_50[0][0]                      
__________________________________________________________________________________________________
pop_mask_53 (AddMask)           (None, 17, 17, 192)  55488       lt_53[0][0]                      
__________________________________________________________________________________________________
pop_mask_58 (AddMask)           (None, 17, 17, 192)  55488       lt_58[0][0]                      
__________________________________________________________________________________________________
pop_mask_59 (AddMask)           (None, 17, 17, 192)  55488       lt_59[0][0]                      
__________________________________________________________________________________________________
bn_50 (BatchNormalization)      (None, 17, 17, 192)  576         pop_mask_50[0][0]                
__________________________________________________________________________________________________
bn_53 (BatchNormalization)      (None, 17, 17, 192)  576         pop_mask_53[0][0]                
__________________________________________________________________________________________________
bn_58 (BatchNormalization)      (None, 17, 17, 192)  576         pop_mask_58[0][0]                
__________________________________________________________________________________________________
bn_59 (BatchNormalization)      (None, 17, 17, 192)  576         pop_mask_59[0][0]                
__________________________________________________________________________________________________
activation_50 (Activation)      (None, 17, 17, 192)  0           bn_50[0][0]                      
__________________________________________________________________________________________________
activation_53 (Activation)      (None, 17, 17, 192)  0           bn_53[0][0]                      
__________________________________________________________________________________________________
activation_58 (Activation)      (None, 17, 17, 192)  0           bn_58[0][0]                      
__________________________________________________________________________________________________
activation_59 (Activation)      (None, 17, 17, 192)  0           bn_59[0][0]                      
__________________________________________________________________________________________________
mixed6 (Concatenate)            (None, 17, 17, 768)  0           activation_50[0][0]              
                                                                 activation_53[0][0]              
                                                                 activation_58[0][0]              
                                                                 activation_59[0][0]              
__________________________________________________________________________________________________
push_mask_64 (AddMask)          (None, 17, 17, 768)  221952      mixed6[0][0]                     
__________________________________________________________________________________________________
conv2d_obf_64 (Conv2D)          (None, 17, 17, 230)  176640      push_mask_64[0][0]               
__________________________________________________________________________________________________
lt_64 (LinearTransform)         (None, 17, 17, 192)  576         conv2d_obf_64[0][0]              
__________________________________________________________________________________________________
pop_mask_64 (AddMask)           (None, 17, 17, 192)  55488       lt_64[0][0]                      
__________________________________________________________________________________________________
bn_64 (BatchNormalization)      (None, 17, 17, 192)  576         pop_mask_64[0][0]                
__________________________________________________________________________________________________
activation_64 (Activation)      (None, 17, 17, 192)  0           bn_64[0][0]                      
__________________________________________________________________________________________________
push_mask_65 (AddMask)          (None, 17, 17, 192)  55488       activation_64[0][0]              
__________________________________________________________________________________________________
conv2d_obf_65 (Conv2D)          (None, 17, 17, 230)  309120      push_mask_65[0][0]               
__________________________________________________________________________________________________
lt_65 (LinearTransform)         (None, 17, 17, 192)  576         conv2d_obf_65[0][0]              
__________________________________________________________________________________________________
pop_mask_65 (AddMask)           (None, 17, 17, 192)  55488       lt_65[0][0]                      
__________________________________________________________________________________________________
bn_65 (BatchNormalization)      (None, 17, 17, 192)  576         pop_mask_65[0][0]                
__________________________________________________________________________________________________
activation_65 (Activation)      (None, 17, 17, 192)  0           bn_65[0][0]                      
__________________________________________________________________________________________________
push_mask_61 (AddMask)          (None, 17, 17, 768)  221952      mixed6[0][0]                     
__________________________________________________________________________________________________
push_mask_66 (AddMask)          (None, 17, 17, 192)  55488       activation_65[0][0]              
__________________________________________________________________________________________________
conv2d_obf_61 (Conv2D)          (None, 17, 17, 230)  176640      push_mask_61[0][0]               
__________________________________________________________________________________________________
conv2d_obf_66 (Conv2D)          (None, 17, 17, 230)  309120      push_mask_66[0][0]               
__________________________________________________________________________________________________
lt_61 (LinearTransform)         (None, 17, 17, 192)  576         conv2d_obf_61[0][0]              
__________________________________________________________________________________________________
lt_66 (LinearTransform)         (None, 17, 17, 192)  576         conv2d_obf_66[0][0]              
__________________________________________________________________________________________________
pop_mask_61 (AddMask)           (None, 17, 17, 192)  55488       lt_61[0][0]                      
__________________________________________________________________________________________________
pop_mask_66 (AddMask)           (None, 17, 17, 192)  55488       lt_66[0][0]                      
__________________________________________________________________________________________________
bn_61 (BatchNormalization)      (None, 17, 17, 192)  576         pop_mask_61[0][0]                
__________________________________________________________________________________________________
bn_66 (BatchNormalization)      (None, 17, 17, 192)  576         pop_mask_66[0][0]                
__________________________________________________________________________________________________
activation_61 (Activation)      (None, 17, 17, 192)  0           bn_61[0][0]                      
__________________________________________________________________________________________________
activation_66 (Activation)      (None, 17, 17, 192)  0           bn_66[0][0]                      
__________________________________________________________________________________________________
push_mask_62 (AddMask)          (None, 17, 17, 192)  55488       activation_61[0][0]              
__________________________________________________________________________________________________
push_mask_67 (AddMask)          (None, 17, 17, 192)  55488       activation_66[0][0]              
__________________________________________________________________________________________________
conv2d_obf_62 (Conv2D)          (None, 17, 17, 230)  309120      push_mask_62[0][0]               
__________________________________________________________________________________________________
conv2d_obf_67 (Conv2D)          (None, 17, 17, 230)  309120      push_mask_67[0][0]               
__________________________________________________________________________________________________
lt_62 (LinearTransform)         (None, 17, 17, 192)  576         conv2d_obf_62[0][0]              
__________________________________________________________________________________________________
lt_67 (LinearTransform)         (None, 17, 17, 192)  576         conv2d_obf_67[0][0]              
__________________________________________________________________________________________________
pop_mask_62 (AddMask)           (None, 17, 17, 192)  55488       lt_62[0][0]                      
__________________________________________________________________________________________________
pop_mask_67 (AddMask)           (None, 17, 17, 192)  55488       lt_67[0][0]                      
__________________________________________________________________________________________________
bn_62 (BatchNormalization)      (None, 17, 17, 192)  576         pop_mask_62[0][0]                
__________________________________________________________________________________________________
bn_67 (BatchNormalization)      (None, 17, 17, 192)  576         pop_mask_67[0][0]                
__________________________________________________________________________________________________
activation_62 (Activation)      (None, 17, 17, 192)  0           bn_62[0][0]                      
__________________________________________________________________________________________________
activation_67 (Activation)      (None, 17, 17, 192)  0           bn_67[0][0]                      
__________________________________________________________________________________________________
average_pooling2d_6 (AveragePoo (None, 17, 17, 768)  0           mixed6[0][0]                     
__________________________________________________________________________________________________
push_mask_60 (AddMask)          (None, 17, 17, 768)  221952      mixed6[0][0]                     
__________________________________________________________________________________________________
push_mask_63 (AddMask)          (None, 17, 17, 192)  55488       activation_62[0][0]              
__________________________________________________________________________________________________
push_mask_68 (AddMask)          (None, 17, 17, 192)  55488       activation_67[0][0]              
__________________________________________________________________________________________________
push_mask_69 (AddMask)          (None, 17, 17, 768)  221952      average_pooling2d_6[0][0]        
__________________________________________________________________________________________________
conv2d_obf_60 (Conv2D)          (None, 17, 17, 230)  176640      push_mask_60[0][0]               
__________________________________________________________________________________________________
conv2d_obf_63 (Conv2D)          (None, 17, 17, 230)  309120      push_mask_63[0][0]               
__________________________________________________________________________________________________
conv2d_obf_68 (Conv2D)          (None, 17, 17, 230)  309120      push_mask_68[0][0]               
__________________________________________________________________________________________________
conv2d_obf_69 (Conv2D)          (None, 17, 17, 230)  176640      push_mask_69[0][0]               
__________________________________________________________________________________________________
lt_60 (LinearTransform)         (None, 17, 17, 192)  576         conv2d_obf_60[0][0]              
__________________________________________________________________________________________________
lt_63 (LinearTransform)         (None, 17, 17, 192)  576         conv2d_obf_63[0][0]              
__________________________________________________________________________________________________
lt_68 (LinearTransform)         (None, 17, 17, 192)  576         conv2d_obf_68[0][0]              
__________________________________________________________________________________________________
lt_69 (LinearTransform)         (None, 17, 17, 192)  576         conv2d_obf_69[0][0]              
__________________________________________________________________________________________________
pop_mask_60 (AddMask)           (None, 17, 17, 192)  55488       lt_60[0][0]                      
__________________________________________________________________________________________________
pop_mask_63 (AddMask)           (None, 17, 17, 192)  55488       lt_63[0][0]                      
__________________________________________________________________________________________________
pop_mask_68 (AddMask)           (None, 17, 17, 192)  55488       lt_68[0][0]                      
__________________________________________________________________________________________________
pop_mask_69 (AddMask)           (None, 17, 17, 192)  55488       lt_69[0][0]                      
__________________________________________________________________________________________________
bn_60 (BatchNormalization)      (None, 17, 17, 192)  576         pop_mask_60[0][0]                
__________________________________________________________________________________________________
bn_63 (BatchNormalization)      (None, 17, 17, 192)  576         pop_mask_63[0][0]                
__________________________________________________________________________________________________
bn_68 (BatchNormalization)      (None, 17, 17, 192)  576         pop_mask_68[0][0]                
__________________________________________________________________________________________________
bn_69 (BatchNormalization)      (None, 17, 17, 192)  576         pop_mask_69[0][0]                
__________________________________________________________________________________________________
activation_60 (Activation)      (None, 17, 17, 192)  0           bn_60[0][0]                      
__________________________________________________________________________________________________
activation_63 (Activation)      (None, 17, 17, 192)  0           bn_63[0][0]                      
__________________________________________________________________________________________________
activation_68 (Activation)      (None, 17, 17, 192)  0           bn_68[0][0]                      
__________________________________________________________________________________________________
activation_69 (Activation)      (None, 17, 17, 192)  0           bn_69[0][0]                      
__________________________________________________________________________________________________
mixed7 (Concatenate)            (None, 17, 17, 768)  0           activation_60[0][0]              
                                                                 activation_63[0][0]              
                                                                 activation_68[0][0]              
                                                                 activation_69[0][0]              
__________________________________________________________________________________________________
push_mask_72 (AddMask)          (None, 17, 17, 768)  221952      mixed7[0][0]                     
__________________________________________________________________________________________________
conv2d_obf_72 (Conv2D)          (None, 17, 17, 230)  176640      push_mask_72[0][0]               
__________________________________________________________________________________________________
lt_72 (LinearTransform)         (None, 17, 17, 192)  576         conv2d_obf_72[0][0]              
__________________________________________________________________________________________________
pop_mask_72 (AddMask)           (None, 17, 17, 192)  55488       lt_72[0][0]                      
__________________________________________________________________________________________________
bn_72 (BatchNormalization)      (None, 17, 17, 192)  576         pop_mask_72[0][0]                
__________________________________________________________________________________________________
activation_72 (Activation)      (None, 17, 17, 192)  0           bn_72[0][0]                      
__________________________________________________________________________________________________
push_mask_73 (AddMask)          (None, 17, 17, 192)  55488       activation_72[0][0]              
__________________________________________________________________________________________________
conv2d_obf_73 (Conv2D)          (None, 17, 17, 230)  309120      push_mask_73[0][0]               
__________________________________________________________________________________________________
lt_73 (LinearTransform)         (None, 17, 17, 192)  576         conv2d_obf_73[0][0]              
__________________________________________________________________________________________________
pop_mask_73 (AddMask)           (None, 17, 17, 192)  55488       lt_73[0][0]                      
__________________________________________________________________________________________________
bn_73 (BatchNormalization)      (None, 17, 17, 192)  576         pop_mask_73[0][0]                
__________________________________________________________________________________________________
activation_73 (Activation)      (None, 17, 17, 192)  0           bn_73[0][0]                      
__________________________________________________________________________________________________
push_mask_70 (AddMask)          (None, 17, 17, 768)  221952      mixed7[0][0]                     
__________________________________________________________________________________________________
push_mask_74 (AddMask)          (None, 17, 17, 192)  55488       activation_73[0][0]              
__________________________________________________________________________________________________
conv2d_obf_70 (Conv2D)          (None, 17, 17, 230)  176640      push_mask_70[0][0]               
__________________________________________________________________________________________________
conv2d_obf_74 (Conv2D)          (None, 17, 17, 230)  309120      push_mask_74[0][0]               
__________________________________________________________________________________________________
lt_70 (LinearTransform)         (None, 17, 17, 192)  576         conv2d_obf_70[0][0]              
__________________________________________________________________________________________________
lt_74 (LinearTransform)         (None, 17, 17, 192)  576         conv2d_obf_74[0][0]              
__________________________________________________________________________________________________
pop_mask_70 (AddMask)           (None, 17, 17, 192)  55488       lt_70[0][0]                      
__________________________________________________________________________________________________
pop_mask_74 (AddMask)           (None, 17, 17, 192)  55488       lt_74[0][0]                      
__________________________________________________________________________________________________
bn_70 (BatchNormalization)      (None, 17, 17, 192)  576         pop_mask_70[0][0]                
__________________________________________________________________________________________________
bn_74 (BatchNormalization)      (None, 17, 17, 192)  576         pop_mask_74[0][0]                
__________________________________________________________________________________________________
activation_70 (Activation)      (None, 17, 17, 192)  0           bn_70[0][0]                      
__________________________________________________________________________________________________
activation_74 (Activation)      (None, 17, 17, 192)  0           bn_74[0][0]                      
__________________________________________________________________________________________________
push_mask_71 (AddMask)          (None, 17, 17, 192)  55488       activation_70[0][0]              
__________________________________________________________________________________________________
push_mask_75 (AddMask)          (None, 17, 17, 192)  55488       activation_74[0][0]              
__________________________________________________________________________________________________
conv2d_obf_71 (Conv2D)          (None, 8, 8, 384)    663552      push_mask_71[0][0]               
__________________________________________________________________________________________________
conv2d_obf_75 (Conv2D)          (None, 8, 8, 230)    397440      push_mask_75[0][0]               
__________________________________________________________________________________________________
lt_71 (LinearTransform)         (None, 8, 8, 320)    960         conv2d_obf_71[0][0]              
__________________________________________________________________________________________________
lt_75 (LinearTransform)         (None, 8, 8, 192)    576         conv2d_obf_75[0][0]              
__________________________________________________________________________________________________
pop_mask_71 (AddMask)           (None, 8, 8, 320)    20480       lt_71[0][0]                      
__________________________________________________________________________________________________
pop_mask_75 (AddMask)           (None, 8, 8, 192)    12288       lt_75[0][0]                      
__________________________________________________________________________________________________
bn_71 (BatchNormalization)      (None, 8, 8, 320)    960         pop_mask_71[0][0]                
__________________________________________________________________________________________________
bn_75 (BatchNormalization)      (None, 8, 8, 192)    576         pop_mask_75[0][0]                
__________________________________________________________________________________________________
activation_71 (Activation)      (None, 8, 8, 320)    0           bn_71[0][0]                      
__________________________________________________________________________________________________
activation_75 (Activation)      (None, 8, 8, 192)    0           bn_75[0][0]                      
__________________________________________________________________________________________________
max_pooling2d_3 (MaxPooling2D)  (None, 8, 8, 768)    0           mixed7[0][0]                     
__________________________________________________________________________________________________
mixed8 (Concatenate)            (None, 8, 8, 1280)   0           activation_71[0][0]              
                                                                 activation_75[0][0]              
                                                                 max_pooling2d_3[0][0]            
__________________________________________________________________________________________________
push_mask_80 (AddMask)          (None, 8, 8, 1280)   81920       mixed8[0][0]                     
__________________________________________________________________________________________________
conv2d_obf_80 (Conv2D)          (None, 8, 8, 537)    687360      push_mask_80[0][0]               
__________________________________________________________________________________________________
lt_80 (LinearTransform)         (None, 8, 8, 448)    1344        conv2d_obf_80[0][0]              
__________________________________________________________________________________________________
pop_mask_80 (AddMask)           (None, 8, 8, 448)    28672       lt_80[0][0]                      
__________________________________________________________________________________________________
bn_80 (BatchNormalization)      (None, 8, 8, 448)    1344        pop_mask_80[0][0]                
__________________________________________________________________________________________________
activation_80 (Activation)      (None, 8, 8, 448)    0           bn_80[0][0]                      
__________________________________________________________________________________________________
push_mask_77 (AddMask)          (None, 8, 8, 1280)   81920       mixed8[0][0]                     
__________________________________________________________________________________________________
push_mask_81 (AddMask)          (None, 8, 8, 448)    28672       activation_80[0][0]              
__________________________________________________________________________________________________
conv2d_obf_77 (Conv2D)          (None, 8, 8, 460)    588800      push_mask_77[0][0]               
__________________________________________________________________________________________________
conv2d_obf_81 (Conv2D)          (None, 8, 8, 460)    1854720     push_mask_81[0][0]               
__________________________________________________________________________________________________
lt_77 (LinearTransform)         (None, 8, 8, 384)    1152        conv2d_obf_77[0][0]              
__________________________________________________________________________________________________
lt_81 (LinearTransform)         (None, 8, 8, 384)    1152        conv2d_obf_81[0][0]              
__________________________________________________________________________________________________
pop_mask_77 (AddMask)           (None, 8, 8, 384)    24576       lt_77[0][0]                      
__________________________________________________________________________________________________
pop_mask_81 (AddMask)           (None, 8, 8, 384)    24576       lt_81[0][0]                      
__________________________________________________________________________________________________
bn_77 (BatchNormalization)      (None, 8, 8, 384)    1152        pop_mask_77[0][0]                
__________________________________________________________________________________________________
bn_81 (BatchNormalization)      (None, 8, 8, 384)    1152        pop_mask_81[0][0]                
__________________________________________________________________________________________________
activation_77 (Activation)      (None, 8, 8, 384)    0           bn_77[0][0]                      
__________________________________________________________________________________________________
activation_81 (Activation)      (None, 8, 8, 384)    0           bn_81[0][0]                      
__________________________________________________________________________________________________
push_mask_78 (AddMask)          (None, 8, 8, 384)    24576       activation_77[0][0]              
__________________________________________________________________________________________________
push_mask_79 (AddMask)          (None, 8, 8, 384)    24576       activation_77[0][0]              
__________________________________________________________________________________________________
push_mask_82 (AddMask)          (None, 8, 8, 384)    24576       activation_81[0][0]              
__________________________________________________________________________________________________
push_mask_83 (AddMask)          (None, 8, 8, 384)    24576       activation_81[0][0]              
__________________________________________________________________________________________________
average_pooling2d_7 (AveragePoo (None, 8, 8, 1280)   0           mixed8[0][0]                     
__________________________________________________________________________________________________
push_mask_76 (AddMask)          (None, 8, 8, 1280)   81920       mixed8[0][0]                     
__________________________________________________________________________________________________
conv2d_obf_78 (Conv2D)          (None, 8, 8, 460)    529920      push_mask_78[0][0]               
__________________________________________________________________________________________________
conv2d_obf_79 (Conv2D)          (None, 8, 8, 460)    529920      push_mask_79[0][0]               
__________________________________________________________________________________________________
conv2d_obf_82 (Conv2D)          (None, 8, 8, 460)    529920      push_mask_82[0][0]               
__________________________________________________________________________________________________
conv2d_obf_83 (Conv2D)          (None, 8, 8, 460)    529920      push_mask_83[0][0]               
__________________________________________________________________________________________________
push_mask_84 (AddMask)          (None, 8, 8, 1280)   81920       average_pooling2d_7[0][0]        
__________________________________________________________________________________________________
conv2d_obf_76 (Conv2D)          (None, 8, 8, 384)    491520      push_mask_76[0][0]               
__________________________________________________________________________________________________
lt_78 (LinearTransform)         (None, 8, 8, 384)    1152        conv2d_obf_78[0][0]              
__________________________________________________________________________________________________
lt_79 (LinearTransform)         (None, 8, 8, 384)    1152        conv2d_obf_79[0][0]              
__________________________________________________________________________________________________
lt_82 (LinearTransform)         (None, 8, 8, 384)    1152        conv2d_obf_82[0][0]              
__________________________________________________________________________________________________
lt_83 (LinearTransform)         (None, 8, 8, 384)    1152        conv2d_obf_83[0][0]              
__________________________________________________________________________________________________
conv2d_obf_84 (Conv2D)          (None, 8, 8, 230)    294400      push_mask_84[0][0]               
__________________________________________________________________________________________________
lt_76 (LinearTransform)         (None, 8, 8, 320)    960         conv2d_obf_76[0][0]              
__________________________________________________________________________________________________
pop_mask_78 (AddMask)           (None, 8, 8, 384)    24576       lt_78[0][0]                      
__________________________________________________________________________________________________
pop_mask_79 (AddMask)           (None, 8, 8, 384)    24576       lt_79[0][0]                      
__________________________________________________________________________________________________
pop_mask_82 (AddMask)           (None, 8, 8, 384)    24576       lt_82[0][0]                      
__________________________________________________________________________________________________
pop_mask_83 (AddMask)           (None, 8, 8, 384)    24576       lt_83[0][0]                      
__________________________________________________________________________________________________
lt_84 (LinearTransform)         (None, 8, 8, 192)    576         conv2d_obf_84[0][0]              
__________________________________________________________________________________________________
pop_mask_76 (AddMask)           (None, 8, 8, 320)    20480       lt_76[0][0]                      
__________________________________________________________________________________________________
bn_78 (BatchNormalization)      (None, 8, 8, 384)    1152        pop_mask_78[0][0]                
__________________________________________________________________________________________________
bn_79 (BatchNormalization)      (None, 8, 8, 384)    1152        pop_mask_79[0][0]                
__________________________________________________________________________________________________
bn_82 (BatchNormalization)      (None, 8, 8, 384)    1152        pop_mask_82[0][0]                
__________________________________________________________________________________________________
bn_83 (BatchNormalization)      (None, 8, 8, 384)    1152        pop_mask_83[0][0]                
__________________________________________________________________________________________________
pop_mask_84 (AddMask)           (None, 8, 8, 192)    12288       lt_84[0][0]                      
__________________________________________________________________________________________________
bn_76 (BatchNormalization)      (None, 8, 8, 320)    960         pop_mask_76[0][0]                
__________________________________________________________________________________________________
activation_78 (Activation)      (None, 8, 8, 384)    0           bn_78[0][0]                      
__________________________________________________________________________________________________
activation_79 (Activation)      (None, 8, 8, 384)    0           bn_79[0][0]                      
__________________________________________________________________________________________________
activation_82 (Activation)      (None, 8, 8, 384)    0           bn_82[0][0]                      
__________________________________________________________________________________________________
activation_83 (Activation)      (None, 8, 8, 384)    0           bn_83[0][0]                      
__________________________________________________________________________________________________
bn_84 (BatchNormalization)      (None, 8, 8, 192)    576         pop_mask_84[0][0]                
__________________________________________________________________________________________________
activation_76 (Activation)      (None, 8, 8, 320)    0           bn_76[0][0]                      
__________________________________________________________________________________________________
mixed9_0 (Concatenate)          (None, 8, 8, 768)    0           activation_78[0][0]              
                                                                 activation_79[0][0]              
__________________________________________________________________________________________________
concatenate (Concatenate)       (None, 8, 8, 768)    0           activation_82[0][0]              
                                                                 activation_83[0][0]              
__________________________________________________________________________________________________
activation_84 (Activation)      (None, 8, 8, 192)    0           bn_84[0][0]                      
__________________________________________________________________________________________________
mixed9 (Concatenate)            (None, 8, 8, 2048)   0           activation_76[0][0]              
                                                                 mixed9_0[0][0]                   
                                                                 concatenate[0][0]                
                                                                 activation_84[0][0]              
__________________________________________________________________________________________________
push_mask_89 (AddMask)          (None, 8, 8, 2048)   131072      mixed9[0][0]                     
__________________________________________________________________________________________________
conv2d_obf_89 (Conv2D)          (None, 8, 8, 537)    1099776     push_mask_89[0][0]               
__________________________________________________________________________________________________
lt_89 (LinearTransform)         (None, 8, 8, 448)    1344        conv2d_obf_89[0][0]              
__________________________________________________________________________________________________
pop_mask_89 (AddMask)           (None, 8, 8, 448)    28672       lt_89[0][0]                      
__________________________________________________________________________________________________
bn_89 (BatchNormalization)      (None, 8, 8, 448)    1344        pop_mask_89[0][0]                
__________________________________________________________________________________________________
activation_89 (Activation)      (None, 8, 8, 448)    0           bn_89[0][0]                      
__________________________________________________________________________________________________
push_mask_86 (AddMask)          (None, 8, 8, 2048)   131072      mixed9[0][0]                     
__________________________________________________________________________________________________
push_mask_90 (AddMask)          (None, 8, 8, 448)    28672       activation_89[0][0]              
__________________________________________________________________________________________________
conv2d_obf_86 (Conv2D)          (None, 8, 8, 460)    942080      push_mask_86[0][0]               
__________________________________________________________________________________________________
conv2d_obf_90 (Conv2D)          (None, 8, 8, 460)    1854720     push_mask_90[0][0]               
__________________________________________________________________________________________________
lt_86 (LinearTransform)         (None, 8, 8, 384)    1152        conv2d_obf_86[0][0]              
__________________________________________________________________________________________________
lt_90 (LinearTransform)         (None, 8, 8, 384)    1152        conv2d_obf_90[0][0]              
__________________________________________________________________________________________________
pop_mask_86 (AddMask)           (None, 8, 8, 384)    24576       lt_86[0][0]                      
__________________________________________________________________________________________________
pop_mask_90 (AddMask)           (None, 8, 8, 384)    24576       lt_90[0][0]                      
__________________________________________________________________________________________________
bn_86 (BatchNormalization)      (None, 8, 8, 384)    1152        pop_mask_86[0][0]                
__________________________________________________________________________________________________
bn_90 (BatchNormalization)      (None, 8, 8, 384)    1152        pop_mask_90[0][0]                
__________________________________________________________________________________________________
activation_86 (Activation)      (None, 8, 8, 384)    0           bn_86[0][0]                      
__________________________________________________________________________________________________
activation_90 (Activation)      (None, 8, 8, 384)    0           bn_90[0][0]                      
__________________________________________________________________________________________________
push_mask_87 (AddMask)          (None, 8, 8, 384)    24576       activation_86[0][0]              
__________________________________________________________________________________________________
push_mask_88 (AddMask)          (None, 8, 8, 384)    24576       activation_86[0][0]              
__________________________________________________________________________________________________
push_mask_91 (AddMask)          (None, 8, 8, 384)    24576       activation_90[0][0]              
__________________________________________________________________________________________________
push_mask_92 (AddMask)          (None, 8, 8, 384)    24576       activation_90[0][0]              
__________________________________________________________________________________________________
average_pooling2d_8 (AveragePoo (None, 8, 8, 2048)   0           mixed9[0][0]                     
__________________________________________________________________________________________________
push_mask_85 (AddMask)          (None, 8, 8, 2048)   131072      mixed9[0][0]                     
__________________________________________________________________________________________________
conv2d_obf_87 (Conv2D)          (None, 8, 8, 460)    529920      push_mask_87[0][0]               
__________________________________________________________________________________________________
conv2d_obf_88 (Conv2D)          (None, 8, 8, 460)    529920      push_mask_88[0][0]               
__________________________________________________________________________________________________
conv2d_obf_91 (Conv2D)          (None, 8, 8, 460)    529920      push_mask_91[0][0]               
__________________________________________________________________________________________________
conv2d_obf_92 (Conv2D)          (None, 8, 8, 460)    529920      push_mask_92[0][0]               
__________________________________________________________________________________________________
push_mask_93 (AddMask)          (None, 8, 8, 2048)   131072      average_pooling2d_8[0][0]        
__________________________________________________________________________________________________
conv2d_obf_85 (Conv2D)          (None, 8, 8, 384)    786432      push_mask_85[0][0]               
__________________________________________________________________________________________________
lt_87 (LinearTransform)         (None, 8, 8, 384)    1152        conv2d_obf_87[0][0]              
__________________________________________________________________________________________________
lt_88 (LinearTransform)         (None, 8, 8, 384)    1152        conv2d_obf_88[0][0]              
__________________________________________________________________________________________________
lt_91 (LinearTransform)         (None, 8, 8, 384)    1152        conv2d_obf_91[0][0]              
__________________________________________________________________________________________________
lt_92 (LinearTransform)         (None, 8, 8, 384)    1152        conv2d_obf_92[0][0]              
__________________________________________________________________________________________________
conv2d_obf_93 (Conv2D)          (None, 8, 8, 230)    471040      push_mask_93[0][0]               
__________________________________________________________________________________________________
lt_85 (LinearTransform)         (None, 8, 8, 320)    960         conv2d_obf_85[0][0]              
__________________________________________________________________________________________________
pop_mask_87 (AddMask)           (None, 8, 8, 384)    24576       lt_87[0][0]                      
__________________________________________________________________________________________________
pop_mask_88 (AddMask)           (None, 8, 8, 384)    24576       lt_88[0][0]                      
__________________________________________________________________________________________________
pop_mask_91 (AddMask)           (None, 8, 8, 384)    24576       lt_91[0][0]                      
__________________________________________________________________________________________________
pop_mask_92 (AddMask)           (None, 8, 8, 384)    24576       lt_92[0][0]                      
__________________________________________________________________________________________________
lt_93 (LinearTransform)         (None, 8, 8, 192)    576         conv2d_obf_93[0][0]              
__________________________________________________________________________________________________
pop_mask_85 (AddMask)           (None, 8, 8, 320)    20480       lt_85[0][0]                      
__________________________________________________________________________________________________
bn_87 (BatchNormalization)      (None, 8, 8, 384)    1152        pop_mask_87[0][0]                
__________________________________________________________________________________________________
bn_88 (BatchNormalization)      (None, 8, 8, 384)    1152        pop_mask_88[0][0]                
__________________________________________________________________________________________________
bn_91 (BatchNormalization)      (None, 8, 8, 384)    1152        pop_mask_91[0][0]                
__________________________________________________________________________________________________
bn_92 (BatchNormalization)      (None, 8, 8, 384)    1152        pop_mask_92[0][0]                
__________________________________________________________________________________________________
pop_mask_93 (AddMask)           (None, 8, 8, 192)    12288       lt_93[0][0]                      
__________________________________________________________________________________________________
bn_85 (BatchNormalization)      (None, 8, 8, 320)    960         pop_mask_85[0][0]                
__________________________________________________________________________________________________
activation_87 (Activation)      (None, 8, 8, 384)    0           bn_87[0][0]                      
__________________________________________________________________________________________________
activation_88 (Activation)      (None, 8, 8, 384)    0           bn_88[0][0]                      
__________________________________________________________________________________________________
activation_91 (Activation)      (None, 8, 8, 384)    0           bn_91[0][0]                      
__________________________________________________________________________________________________
activation_92 (Activation)      (None, 8, 8, 384)    0           bn_92[0][0]                      
__________________________________________________________________________________________________
bn_93 (BatchNormalization)      (None, 8, 8, 192)    576         pop_mask_93[0][0]                
__________________________________________________________________________________________________
activation_85 (Activation)      (None, 8, 8, 320)    0           bn_85[0][0]                      
__________________________________________________________________________________________________
mixed9_1 (Concatenate)          (None, 8, 8, 768)    0           activation_87[0][0]              
                                                                 activation_88[0][0]              
__________________________________________________________________________________________________
concatenate_1 (Concatenate)     (None, 8, 8, 768)    0           activation_91[0][0]              
                                                                 activation_92[0][0]              
__________________________________________________________________________________________________
activation_93 (Activation)      (None, 8, 8, 192)    0           bn_93[0][0]                      
__________________________________________________________________________________________________
mixed10 (Concatenate)           (None, 8, 8, 2048)   0           activation_85[0][0]              
                                                                 mixed9_1[0][0]                   
                                                                 concatenate_1[0][0]              
                                                                 activation_93[0][0]              
__________________________________________________________________________________________________
avg_pool (GlobalAveragePooling2 (None, 2048)         0           mixed10[0][0]                    
__________________________________________________________________________________________________
reshape (Reshape)               (None, 1, 1, 2048)   0           avg_pool[0][0]                   
__________________________________________________________________________________________________
push_mask_94 (AddMask)          (None, 1, 1, 2048)   2048        reshape[0][0]                    
__________________________________________________________________________________________________
conv2d_obf_94 (Conv2D)          (None, 1, 1, 1200)   2457600     push_mask_94[0][0]               
__________________________________________________________________________________________________
lt_94 (LinearTransform)         (None, 1, 1, 1000)   3000        conv2d_obf_94[0][0]              
__________________________________________________________________________________________________
pop_mask_94 (AddMask)           (None, 1, 1, 1000)   1000        lt_94[0][0]                      
__________________________________________________________________________________________________
predictions (Activation)        (None, 1, 1, 1000)   0           pop_mask_94[0][0]                
__________________________________________________________________________________________________
reshape_1 (Reshape)             (None, 1000)         0           predictions[0][0]                
==================================================================================================
Total params: 50,756,642
Trainable params: 50,722,210
Non-trainable params: 34,432
__________________________________________________________________________________________________
