Model: "alexnetobf"
_________________________________________________________________
Layer (type)                 Output Shape              Param #   
=================================================================
input_1 (InputLayer)         [(None, 227, 227, 3)]     0         
_________________________________________________________________
conv_1_obf (Conv2D)          (None, 55, 55, 115)       41745     
_________________________________________________________________
linear_transform_1 (LinearTr (None, 55, 55, 96)        288       
_________________________________________________________________
add_bias_1 (AddMask)         (None, 55, 55, 96)        290400    
_________________________________________________________________
relu_1 (Activation)          (None, 55, 55, 96)        0         
_________________________________________________________________
max_pooling2d (MaxPooling2D) (None, 27, 27, 96)        0         
_________________________________________________________________
push_mask_2 (AddMask)        (None, 27, 27, 96)        69984     
_________________________________________________________________
conv_2_obf (Conv2D)          (None, 27, 27, 307)       736800    
_________________________________________________________________
linear_transform_2 (LinearTr (None, 27, 27, 256)       768       
_________________________________________________________________
add_bias_2 (AddMask)         (None, 27, 27, 256)       186624    
_________________________________________________________________
pop_mask_2 (AddMask)         (None, 27, 27, 256)       186624    
_________________________________________________________________
relu_2 (Activation)          (None, 27, 27, 256)       0         
_________________________________________________________________
max_pooling2d_1 (MaxPooling2 (None, 13, 13, 256)       0         
_________________________________________________________________
push_mask_3 (AddMask)        (None, 13, 13, 256)       43264     
_________________________________________________________________
conv_3_obf (Conv2D)          (None, 13, 13, 460)       1059840   
_________________________________________________________________
linear_transform_3 (LinearTr (None, 13, 13, 384)       1152      
_________________________________________________________________
add_bias_3 (AddMask)         (None, 13, 13, 384)       64896     
_________________________________________________________________
pop_mask_3 (AddMask)         (None, 13, 13, 384)       64896     
_________________________________________________________________
relu_3 (Activation)          (None, 13, 13, 384)       0         
_________________________________________________________________
push_mask_4 (AddMask)        (None, 13, 13, 384)       64896     
_________________________________________________________________
conv_4_obf (Conv2D)          (None, 13, 13, 460)       1589760   
_________________________________________________________________
linear_transform_4 (LinearTr (None, 13, 13, 384)       1152      
_________________________________________________________________
add_bias_4 (AddMask)         (None, 13, 13, 384)       64896     
_________________________________________________________________
pop_mask_4 (AddMask)         (None, 13, 13, 384)       64896     
_________________________________________________________________
relu_4 (Activation)          (None, 13, 13, 384)       0         
_________________________________________________________________
push_mask_5 (AddMask)        (None, 13, 13, 384)       64896     
_________________________________________________________________
conv_5_obf (Conv2D)          (None, 13, 13, 307)       1060992   
_________________________________________________________________
linear_transform_5 (LinearTr (None, 13, 13, 256)       768       
_________________________________________________________________
add_bias_5 (AddMask)         (None, 13, 13, 256)       43264     
_________________________________________________________________
pop_mask_5 (AddMask)         (None, 13, 13, 256)       43264     
_________________________________________________________________
relu_5 (Activation)          (None, 13, 13, 256)       0         
_________________________________________________________________
max_pooling2d_2 (MaxPooling2 (None, 6, 6, 256)         0         
_________________________________________________________________
flatten (Flatten)            (None, 9216)              0         
_________________________________________________________________
reshape (Reshape)            (None, 1, 1, 9216)        0         
_________________________________________________________________
push_mask_6 (AddMask)        (None, 1, 1, 9216)        9216      
_________________________________________________________________
conv_6_obf (Conv2D)          (None, 1, 1, 4915)        45296640  
_________________________________________________________________
linear_transform_6 (LinearTr (None, 1, 1, 4096)        12288     
_________________________________________________________________
add_bias_6 (AddMask)         (None, 1, 1, 4096)        4096      
_________________________________________________________________
pop_mask_6 (AddMask)         (None, 1, 1, 4096)        4096      
_________________________________________________________________
relu_6 (Activation)          (None, 1, 1, 4096)        0         
_________________________________________________________________
push_mask_7 (AddMask)        (None, 1, 1, 4096)        4096      
_________________________________________________________________
conv_7_obf (Conv2D)          (None, 1, 1, 4915)        20131840  
_________________________________________________________________
linear_transform_7 (LinearTr (None, 1, 1, 4096)        12288     
_________________________________________________________________
add_bias_7 (AddMask)         (None, 1, 1, 4096)        4096      
_________________________________________________________________
pop_mask_7 (AddMask)         (None, 1, 1, 4096)        4096      
_________________________________________________________________
relu_7 (Activation)          (None, 1, 1, 4096)        0         
_________________________________________________________________
push_mask_8 (AddMask)        (None, 1, 1, 4096)        4096      
_________________________________________________________________
conv_8_obf (Conv2D)          (None, 1, 1, 1200)        4915200   
_________________________________________________________________
linear_transform_8 (LinearTr (None, 1, 1, 1000)        3000      
_________________________________________________________________
add_bias_8 (AddMask)         (None, 1, 1, 1000)        1000      
_________________________________________________________________
pop_mask_8 (AddMask)         (None, 1, 1, 1000)        1000      
_________________________________________________________________
relu_8 (Activation)          (None, 1, 1, 1000)        0         
_________________________________________________________________
push_mask_9 (AddMask)        (None, 1, 1, 1000)        1000      
_________________________________________________________________
conv_9_obf (Conv2D)          (None, 1, 1, 1200)        1200000   
_________________________________________________________________
linear_transform_9 (LinearTr (None, 1, 1, 1000)        3000      
_________________________________________________________________
add_bias_9 (AddMask)         (None, 1, 1, 1000)        1000      
_________________________________________________________________
pop_mask_9 (AddMask)         (None, 1, 1, 1000)        1000      
_________________________________________________________________
softmax_9 (Activation)       (None, 1, 1, 1000)        0         
_________________________________________________________________
reshape_1 (Reshape)          (None, 1000)              0         
=================================================================
Total params: 77,359,113
Trainable params: 77,359,113
Non-trainable params: 0
_________________________________________________________________
