Model: "alexnetsplit"
_________________________________________________________________
Layer (type)                 Output Shape              Param #   
=================================================================
input_1 (InputLayer)         [(None, 227, 227, 3)]     0         
_________________________________________________________________
conv_1_obf (Conv2D)          (None, 55, 55, 115)       41745     
_________________________________________________________________
ts_conv_1 (TeeShadowGeneric) (None, 27, 27, 96)        0         
_________________________________________________________________
conv_2_obf (Conv2D)          (None, 27, 27, 307)       736800    
_________________________________________________________________
ts_conv_2 (TeeShadowGeneric) (None, 13, 13, 256)       0         
_________________________________________________________________
conv_3_obf (Conv2D)          (None, 13, 13, 460)       1059840   
_________________________________________________________________
ts_conv_3 (TeeShadowGeneric) (None, 13, 13, 384)       0         
_________________________________________________________________
conv_4_obf (Conv2D)          (None, 13, 13, 460)       1589760   
_________________________________________________________________
ts_conv_4 (TeeShadowGeneric) (None, 13, 13, 384)       0         
_________________________________________________________________
conv_5_obf (Conv2D)          (None, 13, 13, 307)       1060992   
_________________________________________________________________
ts_conv_5 (TeeShadowGeneric) (None, 6, 6, 256)         0         
_________________________________________________________________
flatten (Flatten)            (None, 9216)              0         
_________________________________________________________________
reshape (Reshape)            (None, 1, 1, 9216)        0         
_________________________________________________________________
conv_6_obf (Conv2D)          (None, 1, 1, 4915)        45296640  
_________________________________________________________________
ts_conv_6 (TeeShadowGeneric) (None, 1, 1, 4096)        0         
_________________________________________________________________
conv_7_obf (Conv2D)          (None, 1, 1, 4915)        20131840  
_________________________________________________________________
ts_conv_7 (TeeShadowGeneric) (None, 1, 1, 4096)        0         
_________________________________________________________________
conv_8_obf (Conv2D)          (None, 1, 1, 1200)        4915200   
_________________________________________________________________
ts_conv_8 (TeeShadowGeneric) (None, 1, 1, 1000)        0         
_________________________________________________________________
conv_9_obf (Conv2D)          (None, 1, 1, 1200)        1200000   
_________________________________________________________________
ts_conv_9 (TeeShadowGeneric) (None, 1000)              0         
=================================================================
Total params: 76,032,817
Trainable params: 76,032,817
Non-trainable params: 0
_________________________________________________________________
