Model: "minivggnetsplit"
_________________________________________________________________
Layer (type)                 Output Shape              Param #   
=================================================================
input_1 (InputLayer)         [(None, 64, 64, 3)]       0         
_________________________________________________________________
conv_1_obf (Conv2D)          (None, 64, 64, 38)        1026      
_________________________________________________________________
ts_conv_1 (TeeShadowGeneric) (None, 32, 32, 32)        0         
_________________________________________________________________
conv_2_obf (Conv2D)          (None, 32, 32, 76)        21888     
_________________________________________________________________
ts_conv_2 (TeeShadowGeneric) (None, 16, 16, 64)        0         
_________________________________________________________________
conv_3_obf (Conv2D)          (None, 16, 16, 153)       88128     
_________________________________________________________________
ts_conv_3 (TeeShadowGeneric) (None, 16, 16, 128)       0         
_________________________________________________________________
conv_4_obf (Conv2D)          (None, 16, 16, 153)       176256    
_________________________________________________________________
ts_conv_4 (TeeShadowGeneric) (None, 16, 16, 128)       0         
_________________________________________________________________
conv_5_obf (Conv2D)          (None, 16, 16, 153)       176256    
_________________________________________________________________
ts_conv_5 (TeeShadowGeneric) (None, 8, 8, 128)         0         
_________________________________________________________________
flatten (Flatten)            (None, 8192)              0         
_________________________________________________________________
reshape (Reshape)            (None, 1, 1, 8192)        0         
_________________________________________________________________
conv_6_obf (Conv2D)          (None, 1, 1, 614)         5029888   
_________________________________________________________________
ts_conv_6 (TeeShadowGeneric) (None, 1, 1, 512)         0         
_________________________________________________________________
conv_7_obf (Conv2D)          (None, 1, 1, 1200)        614400    
_________________________________________________________________
ts_conv_7 (TeeShadowGeneric) (None, 1000)              0         
=================================================================
Total params: 6,107,842
Trainable params: 6,107,842
Non-trainable params: 0
_________________________________________________________________
