Model: "minivggobf"
_________________________________________________________________
Layer (type)                 Output Shape              Param #   
=================================================================
input_1 (InputLayer)         [(None, 64, 64, 3)]       0         
_________________________________________________________________
conv_1_obf (Conv2D)          (None, 64, 64, 38)        1026      
_________________________________________________________________
linear_transform_1 (LinearTr (None, 64, 64, 32)        128       
_________________________________________________________________
relu_1 (Activation)          (None, 64, 64, 32)        0         
_________________________________________________________________
batch_normalization (BatchNo (None, 64, 64, 32)        128       
_________________________________________________________________
max_pooling2d (MaxPooling2D) (None, 32, 32, 32)        0         
_________________________________________________________________
dropout (Dropout)            (None, 32, 32, 32)        0         
_________________________________________________________________
push_mask_2 (AddMask)        (None, 32, 32, 32)        32768     
_________________________________________________________________
conv_2_obf (Conv2D)          (None, 32, 32, 76)        21888     
_________________________________________________________________
linear_transform_2 (LinearTr (None, 32, 32, 64)        256       
_________________________________________________________________
pop_mask_2 (AddMask)         (None, 32, 32, 64)        65536     
_________________________________________________________________
relu_2 (Activation)          (None, 32, 32, 64)        0         
_________________________________________________________________
batch_normalization_1 (Batch (None, 32, 32, 64)        256       
_________________________________________________________________
max_pooling2d_1 (MaxPooling2 (None, 16, 16, 64)        0         
_________________________________________________________________
dropout_1 (Dropout)          (None, 16, 16, 64)        0         
_________________________________________________________________
push_mask_3 (AddMask)        (None, 16, 16, 64)        16384     
_________________________________________________________________
conv_3_obf (Conv2D)          (None, 16, 16, 153)       88128     
_________________________________________________________________
linear_transform_3 (LinearTr (None, 16, 16, 128)       512       
_________________________________________________________________
pop_mask_3 (AddMask)         (None, 16, 16, 128)       32768     
_________________________________________________________________
relu_3 (Activation)          (None, 16, 16, 128)       0         
_________________________________________________________________
batch_normalization_2 (Batch (None, 16, 16, 128)       512       
_________________________________________________________________
push_mask_4 (AddMask)        (None, 16, 16, 128)       32768     
_________________________________________________________________
conv_4_obf (Conv2D)          (None, 16, 16, 153)       176256    
_________________________________________________________________
linear_transform_4 (LinearTr (None, 16, 16, 128)       512       
_________________________________________________________________
pop_mask_4 (AddMask)         (None, 16, 16, 128)       32768     
_________________________________________________________________
relu_4 (Activation)          (None, 16, 16, 128)       0         
_________________________________________________________________
batch_normalization_3 (Batch (None, 16, 16, 128)       512       
_________________________________________________________________
push_mask_5 (AddMask)        (None, 16, 16, 128)       32768     
_________________________________________________________________
conv_5_obf (Conv2D)          (None, 16, 16, 153)       176256    
_________________________________________________________________
linear_transform_5 (LinearTr (None, 16, 16, 128)       512       
_________________________________________________________________
pop_mask_5 (AddMask)         (None, 16, 16, 128)       32768     
_________________________________________________________________
relu_5 (Activation)          (None, 16, 16, 128)       0         
_________________________________________________________________
batch_normalization_4 (Batch (None, 16, 16, 128)       512       
_________________________________________________________________
max_pooling2d_2 (MaxPooling2 (None, 8, 8, 128)         0         
_________________________________________________________________
dropout_2 (Dropout)          (None, 8, 8, 128)         0         
_________________________________________________________________
flatten (Flatten)            (None, 8192)              0         
_________________________________________________________________
reshape (Reshape)            (None, 1, 1, 8192)        0         
_________________________________________________________________
push_mask_6 (AddMask)        (None, 1, 1, 8192)        8192      
_________________________________________________________________
conv_6_obf (Conv2D)          (None, 1, 1, 614)         5029888   
_________________________________________________________________
linear_transform_6 (LinearTr (None, 1, 1, 512)         2048      
_________________________________________________________________
pop_mask_6 (AddMask)         (None, 1, 1, 512)         512       
_________________________________________________________________
relu_6 (Activation)          (None, 1, 1, 512)         0         
_________________________________________________________________
batch_normalization_5 (Batch (None, 1, 1, 512)         2048      
_________________________________________________________________
dropout_3 (Dropout)          (None, 1, 1, 512)         0         
_________________________________________________________________
push_mask_7 (AddMask)        (None, 1, 1, 512)         512       
_________________________________________________________________
conv_7_obf (Conv2D)          (None, 1, 1, 1200)        614400    
_________________________________________________________________
linear_transform_7 (LinearTr (None, 1, 1, 1000)        4000      
_________________________________________________________________
pop_mask_7 (AddMask)         (None, 1, 1, 1000)        1000      
_________________________________________________________________
softmax_7 (Activation)       (None, 1, 1, 1000)        0         
_________________________________________________________________
reshape_1 (Reshape)          (None, 1000)              0         
=================================================================
Total params: 6,408,522
Trainable params: 6,406,538
Non-trainable params: 1,984
_________________________________________________________________
